node {
  name: "zeros"
  op: "Const"
  attr {
    key: "_output_shapes"
    value {
      list {
        shape {
          dim {
            size: 120
          }
        }
      }
    }
  }
  attr {
    key: "dtype"
    value {
      type: DT_FLOAT
    }
  }
  attr {
    key: "value"
    value {
      tensor {
        dtype: DT_FLOAT
        tensor_shape {
          dim {
            size: 120
          }
        }
        float_val: 0.0
      }
    }
  }
}
node {
  name: "zeros_1"
  op: "Const"
  attr {
    key: "_output_shapes"
    value {
      list {
        shape {
          dim {
            size: 40
          }
        }
      }
    }
  }
  attr {
    key: "dtype"
    value {
      type: DT_FLOAT
    }
  }
  attr {
    key: "value"
    value {
      tensor {
        dtype: DT_FLOAT
        tensor_shape {
          dim {
            size: 40
          }
        }
        float_val: 0.0
      }
    }
  }
}
node {
  name: "zeros_2"
  op: "Const"
  attr {
    key: "_output_shapes"
    value {
      list {
        shape {
          dim {
            size: 40
          }
        }
      }
    }
  }
  attr {
    key: "dtype"
    value {
      type: DT_FLOAT
    }
  }
  attr {
    key: "value"
    value {
      tensor {
        dtype: DT_FLOAT
        tensor_shape {
          dim {
            size: 40
          }
        }
        float_val: 0.0
      }
    }
  }
}
node {
  name: "zeros_3"
  op: "Const"
  attr {
    key: "_output_shapes"
    value {
      list {
        shape {
          dim {
            size: 40
          }
        }
      }
    }
  }
  attr {
    key: "dtype"
    value {
      type: DT_FLOAT
    }
  }
  attr {
    key: "value"
    value {
      tensor {
        dtype: DT_FLOAT
        tensor_shape {
          dim {
            size: 40
          }
        }
        float_val: 0.0
      }
    }
  }
}
node {
  name: "zeros_4"
  op: "Const"
  attr {
    key: "_output_shapes"
    value {
      list {
        shape {
        }
      }
    }
  }
  attr {
    key: "dtype"
    value {
      type: DT_INT64
    }
  }
  attr {
    key: "value"
    value {
      tensor {
        dtype: DT_INT64
        tensor_shape {
        }
        int64_val: 0
      }
    }
  }
}
node {
  name: "zeros_5"
  op: "Const"
  attr {
    key: "_output_shapes"
    value {
      list {
        shape {
          dim {
            size: 120
          }
        }
      }
    }
  }
  attr {
    key: "dtype"
    value {
      type: DT_FLOAT
    }
  }
  attr {
    key: "value"
    value {
      tensor {
        dtype: DT_FLOAT
        tensor_shape {
          dim {
            size: 120
          }
        }
        float_val: 0.0
      }
    }
  }
}
node {
  name: "zeros_6"
  op: "Const"
  attr {
    key: "_output_shapes"
    value {
      list {
        shape {
          dim {
            size: 40
          }
        }
      }
    }
  }
  attr {
    key: "dtype"
    value {
      type: DT_FLOAT
    }
  }
  attr {
    key: "value"
    value {
      tensor {
        dtype: DT_FLOAT
        tensor_shape {
          dim {
            size: 40
          }
        }
        float_val: 0.0
      }
    }
  }
}
node {
  name: "zeros_7"
  op: "Const"
  attr {
    key: "_output_shapes"
    value {
      list {
        shape {
          dim {
            size: 40
          }
        }
      }
    }
  }
  attr {
    key: "dtype"
    value {
      type: DT_FLOAT
    }
  }
  attr {
    key: "value"
    value {
      tensor {
        dtype: DT_FLOAT
        tensor_shape {
          dim {
            size: 40
          }
        }
        float_val: 0.0
      }
    }
  }
}
node {
  name: "zeros_8"
  op: "Const"
  attr {
    key: "_output_shapes"
    value {
      list {
        shape {
          dim {
            size: 40
          }
        }
      }
    }
  }
  attr {
    key: "dtype"
    value {
      type: DT_FLOAT
    }
  }
  attr {
    key: "value"
    value {
      tensor {
        dtype: DT_FLOAT
        tensor_shape {
          dim {
            size: 40
          }
        }
        float_val: 0.0
      }
    }
  }
}
node {
  name: "zeros_9"
  op: "Const"
  attr {
    key: "_output_shapes"
    value {
      list {
        shape {
        }
      }
    }
  }
  attr {
    key: "dtype"
    value {
      type: DT_INT64
    }
  }
  attr {
    key: "value"
    value {
      tensor {
        dtype: DT_INT64
        tensor_shape {
        }
        int64_val: 0
      }
    }
  }
}
node {
  name: "parallel_read/filenames/Const"
  op: "Const"
  attr {
    key: "_output_shapes"
    value {
      list {
        shape {
          dim {
            size: 1
          }
        }
      }
    }
  }
  attr {
    key: "dtype"
    value {
      type: DT_STRING
    }
  }
  attr {
    key: "value"
    value {
      tensor {
        dtype: DT_STRING
        tensor_shape {
          dim {
            size: 1
          }
        }
        string_val: "dataset/ges_train.tfrecords"
      }
    }
  }
}
node {
  name: "parallel_read/filenames/Size"
  op: "Const"
  attr {
    key: "_output_shapes"
    value {
      list {
        shape {
        }
      }
    }
  }
  attr {
    key: "dtype"
    value {
      type: DT_INT32
    }
  }
  attr {
    key: "value"
    value {
      tensor {
        dtype: DT_INT32
        tensor_shape {
        }
        int_val: 1
      }
    }
  }
}
node {
  name: "parallel_read/filenames/Greater/y"
  op: "Const"
  attr {
    key: "_output_shapes"
    value {
      list {
        shape {
        }
      }
    }
  }
  attr {
    key: "dtype"
    value {
      type: DT_INT32
    }
  }
  attr {
    key: "value"
    value {
      tensor {
        dtype: DT_INT32
        tensor_shape {
        }
        int_val: 0
      }
    }
  }
}
node {
  name: "parallel_read/filenames/Greater"
  op: "Greater"
  input: "parallel_read/filenames/Size"
  input: "parallel_read/filenames/Greater/y"
  attr {
    key: "T"
    value {
      type: DT_INT32
    }
  }
  attr {
    key: "_output_shapes"
    value {
      list {
        shape {
        }
      }
    }
  }
}
node {
  name: "parallel_read/filenames/Assert/Const"
  op: "Const"
  attr {
    key: "_output_shapes"
    value {
      list {
        shape {
        }
      }
    }
  }
  attr {
    key: "dtype"
    value {
      type: DT_STRING
    }
  }
  attr {
    key: "value"
    value {
      tensor {
        dtype: DT_STRING
        tensor_shape {
        }
        string_val: "string_input_producer requires a non-null input tensor"
      }
    }
  }
}
node {
  name: "parallel_read/filenames/Assert/Assert/data_0"
  op: "Const"
  attr {
    key: "_output_shapes"
    value {
      list {
        shape {
        }
      }
    }
  }
  attr {
    key: "dtype"
    value {
      type: DT_STRING
    }
  }
  attr {
    key: "value"
    value {
      tensor {
        dtype: DT_STRING
        tensor_shape {
        }
        string_val: "string_input_producer requires a non-null input tensor"
      }
    }
  }
}
node {
  name: "parallel_read/filenames/Assert/Assert"
  op: "Assert"
  input: "parallel_read/filenames/Greater"
  input: "parallel_read/filenames/Assert/Assert/data_0"
  attr {
    key: "T"
    value {
      list {
        type: DT_STRING
      }
    }
  }
  attr {
    key: "summarize"
    value {
      i: 3
    }
  }
}
node {
  name: "parallel_read/filenames/Identity"
  op: "Identity"
  input: "parallel_read/filenames/Const"
  input: "^parallel_read/filenames/Assert/Assert"
  attr {
    key: "T"
    value {
      type: DT_STRING
    }
  }
  attr {
    key: "_output_shapes"
    value {
      list {
        shape {
          dim {
            size: 1
          }
        }
      }
    }
  }
}
node {
  name: "parallel_read/filenames"
  op: "FIFOQueueV2"
  attr {
    key: "_output_shapes"
    value {
      list {
        shape {
        }
      }
    }
  }
  attr {
    key: "capacity"
    value {
      i: 32
    }
  }
  attr {
    key: "component_types"
    value {
      list {
        type: DT_STRING
      }
    }
  }
  attr {
    key: "container"
    value {
      s: ""
    }
  }
  attr {
    key: "shapes"
    value {
      list {
        shape {
        }
      }
    }
  }
  attr {
    key: "shared_name"
    value {
      s: ""
    }
  }
}
node {
  name: "parallel_read/filenames/filenames_EnqueueMany"
  op: "QueueEnqueueManyV2"
  input: "parallel_read/filenames"
  input: "parallel_read/filenames/Identity"
  attr {
    key: "Tcomponents"
    value {
      list {
        type: DT_STRING
      }
    }
  }
  attr {
    key: "timeout_ms"
    value {
      i: -1
    }
  }
}
node {
  name: "parallel_read/filenames/filenames_Close"
  op: "QueueCloseV2"
  input: "parallel_read/filenames"
  attr {
    key: "cancel_pending_enqueues"
    value {
      b: false
    }
  }
}
node {
  name: "parallel_read/filenames/filenames_Close_1"
  op: "QueueCloseV2"
  input: "parallel_read/filenames"
  attr {
    key: "cancel_pending_enqueues"
    value {
      b: true
    }
  }
}
node {
  name: "parallel_read/filenames/filenames_Size"
  op: "QueueSizeV2"
  input: "parallel_read/filenames"
  attr {
    key: "_output_shapes"
    value {
      list {
        shape {
        }
      }
    }
  }
}
node {
  name: "parallel_read/filenames/Cast"
  op: "Cast"
  input: "parallel_read/filenames/filenames_Size"
  attr {
    key: "DstT"
    value {
      type: DT_FLOAT
    }
  }
  attr {
    key: "SrcT"
    value {
      type: DT_INT32
    }
  }
  attr {
    key: "_output_shapes"
    value {
      list {
        shape {
        }
      }
    }
  }
}
node {
  name: "parallel_read/filenames/mul/y"
  op: "Const"
  attr {
    key: "_output_shapes"
    value {
      list {
        shape {
        }
      }
    }
  }
  attr {
    key: "dtype"
    value {
      type: DT_FLOAT
    }
  }
  attr {
    key: "value"
    value {
      tensor {
        dtype: DT_FLOAT
        tensor_shape {
        }
        float_val: 0.03125
      }
    }
  }
}
node {
  name: "parallel_read/filenames/mul"
  op: "Mul"
  input: "parallel_read/filenames/Cast"
  input: "parallel_read/filenames/mul/y"
  attr {
    key: "T"
    value {
      type: DT_FLOAT
    }
  }
  attr {
    key: "_output_shapes"
    value {
      list {
        shape {
        }
      }
    }
  }
}
node {
  name: "parallel_read/filenames/fraction_of_32_full/tags"
  op: "Const"
  attr {
    key: "_output_shapes"
    value {
      list {
        shape {
        }
      }
    }
  }
  attr {
    key: "dtype"
    value {
      type: DT_STRING
    }
  }
  attr {
    key: "value"
    value {
      tensor {
        dtype: DT_STRING
        tensor_shape {
        }
        string_val: "parallel_read/filenames/fraction_of_32_full"
      }
    }
  }
}
node {
  name: "parallel_read/filenames/fraction_of_32_full"
  op: "ScalarSummary"
  input: "parallel_read/filenames/fraction_of_32_full/tags"
  input: "parallel_read/filenames/mul"
  attr {
    key: "T"
    value {
      type: DT_FLOAT
    }
  }
  attr {
    key: "_output_shapes"
    value {
      list {
        shape {
        }
      }
    }
  }
}
node {
  name: "parallel_read/common_queue"
  op: "FIFOQueueV2"
  attr {
    key: "_output_shapes"
    value {
      list {
        shape {
        }
      }
    }
  }
  attr {
    key: "capacity"
    value {
      i: 20
    }
  }
  attr {
    key: "component_types"
    value {
      list {
        type: DT_STRING
        type: DT_STRING
      }
    }
  }
  attr {
    key: "container"
    value {
      s: ""
    }
  }
  attr {
    key: "shapes"
    value {
      list {
      }
    }
  }
  attr {
    key: "shared_name"
    value {
      s: ""
    }
  }
}
node {
  name: "parallel_read/common_queue_Size"
  op: "QueueSizeV2"
  input: "parallel_read/common_queue"
  attr {
    key: "_output_shapes"
    value {
      list {
        shape {
        }
      }
    }
  }
}
node {
  name: "parallel_read/ToFloat"
  op: "Cast"
  input: "parallel_read/common_queue_Size"
  attr {
    key: "DstT"
    value {
      type: DT_FLOAT
    }
  }
  attr {
    key: "SrcT"
    value {
      type: DT_INT32
    }
  }
  attr {
    key: "_output_shapes"
    value {
      list {
        shape {
        }
      }
    }
  }
}
node {
  name: "parallel_read/mul/y"
  op: "Const"
  attr {
    key: "_output_shapes"
    value {
      list {
        shape {
        }
      }
    }
  }
  attr {
    key: "dtype"
    value {
      type: DT_FLOAT
    }
  }
  attr {
    key: "value"
    value {
      tensor {
        dtype: DT_FLOAT
        tensor_shape {
        }
        float_val: 0.0500000007451
      }
    }
  }
}
node {
  name: "parallel_read/mul"
  op: "Mul"
  input: "parallel_read/ToFloat"
  input: "parallel_read/mul/y"
  attr {
    key: "T"
    value {
      type: DT_FLOAT
    }
  }
  attr {
    key: "_output_shapes"
    value {
      list {
        shape {
        }
      }
    }
  }
}
node {
  name: "parallel_read/fraction_of_20_full/tags"
  op: "Const"
  attr {
    key: "_output_shapes"
    value {
      list {
        shape {
        }
      }
    }
  }
  attr {
    key: "dtype"
    value {
      type: DT_STRING
    }
  }
  attr {
    key: "value"
    value {
      tensor {
        dtype: DT_STRING
        tensor_shape {
        }
        string_val: "parallel_read/fraction_of_20_full"
      }
    }
  }
}
node {
  name: "parallel_read/fraction_of_20_full"
  op: "ScalarSummary"
  input: "parallel_read/fraction_of_20_full/tags"
  input: "parallel_read/mul"
  attr {
    key: "T"
    value {
      type: DT_FLOAT
    }
  }
  attr {
    key: "_output_shapes"
    value {
      list {
        shape {
        }
      }
    }
  }
}
node {
  name: "parallel_read/TFRecordReaderV2"
  op: "TFRecordReaderV2"
  attr {
    key: "_output_shapes"
    value {
      list {
        shape {
        }
      }
    }
  }
  attr {
    key: "compression_type"
    value {
      s: ""
    }
  }
  attr {
    key: "container"
    value {
      s: ""
    }
  }
  attr {
    key: "shared_name"
    value {
      s: ""
    }
  }
}
node {
  name: "parallel_read/ReaderReadV2"
  op: "ReaderReadV2"
  input: "parallel_read/TFRecordReaderV2"
  input: "parallel_read/filenames"
  attr {
    key: "_output_shapes"
    value {
      list {
        shape {
        }
        shape {
        }
      }
    }
  }
}
node {
  name: "parallel_read/common_queue_enqueue"
  op: "QueueEnqueueV2"
  input: "parallel_read/common_queue"
  input: "parallel_read/ReaderReadV2"
  input: "parallel_read/ReaderReadV2:1"
  attr {
    key: "Tcomponents"
    value {
      list {
        type: DT_STRING
        type: DT_STRING
      }
    }
  }
  attr {
    key: "timeout_ms"
    value {
      i: -1
    }
  }
}
node {
  name: "parallel_read/common_queue_Close"
  op: "QueueCloseV2"
  input: "parallel_read/common_queue"
  attr {
    key: "cancel_pending_enqueues"
    value {
      b: false
    }
  }
}
node {
  name: "parallel_read/common_queue_Close_1"
  op: "QueueCloseV2"
  input: "parallel_read/common_queue"
  attr {
    key: "cancel_pending_enqueues"
    value {
      b: true
    }
  }
}
node {
  name: "parallel_read/common_queue_Dequeue"
  op: "QueueDequeueV2"
  input: "parallel_read/common_queue"
  attr {
    key: "_output_shapes"
    value {
      list {
        shape {
          unknown_rank: true
        }
        shape {
          unknown_rank: true
        }
      }
    }
  }
  attr {
    key: "component_types"
    value {
      list {
        type: DT_STRING
        type: DT_STRING
      }
    }
  }
  attr {
    key: "timeout_ms"
    value {
      i: -1
    }
  }
}
node {
  name: "ParseSingleExample/Rank"
  op: "Rank"
  input: "parallel_read/common_queue_Dequeue:1"
  attr {
    key: "T"
    value {
      type: DT_STRING
    }
  }
  attr {
    key: "_output_shapes"
    value {
      list {
        shape {
        }
      }
    }
  }
}
node {
  name: "ParseSingleExample/Equal/y"
  op: "Const"
  attr {
    key: "_output_shapes"
    value {
      list {
        shape {
        }
      }
    }
  }
  attr {
    key: "dtype"
    value {
      type: DT_INT32
    }
  }
  attr {
    key: "value"
    value {
      tensor {
        dtype: DT_INT32
        tensor_shape {
        }
        int_val: 0
      }
    }
  }
}
node {
  name: "ParseSingleExample/Equal"
  op: "Equal"
  input: "ParseSingleExample/Rank"
  input: "ParseSingleExample/Equal/y"
  attr {
    key: "T"
    value {
      type: DT_INT32
    }
  }
  attr {
    key: "_output_shapes"
    value {
      list {
        shape {
        }
      }
    }
  }
}
node {
  name: "ParseSingleExample/SerializedIsScalar/Const"
  op: "Const"
  attr {
    key: "_output_shapes"
    value {
      list {
        shape {
        }
      }
    }
  }
  attr {
    key: "dtype"
    value {
      type: DT_STRING
    }
  }
  attr {
    key: "value"
    value {
      tensor {
        dtype: DT_STRING
        tensor_shape {
        }
        string_val: "Input serialized must be a scalar"
      }
    }
  }
}
node {
  name: "ParseSingleExample/SerializedIsScalar/Assert/data_0"
  op: "Const"
  attr {
    key: "_output_shapes"
    value {
      list {
        shape {
        }
      }
    }
  }
  attr {
    key: "dtype"
    value {
      type: DT_STRING
    }
  }
  attr {
    key: "value"
    value {
      tensor {
        dtype: DT_STRING
        tensor_shape {
        }
        string_val: "Input serialized must be a scalar"
      }
    }
  }
}
node {
  name: "ParseSingleExample/SerializedIsScalar/Assert"
  op: "Assert"
  input: "ParseSingleExample/Equal"
  input: "ParseSingleExample/SerializedIsScalar/Assert/data_0"
  attr {
    key: "T"
    value {
      list {
        type: DT_STRING
      }
    }
  }
  attr {
    key: "summarize"
    value {
      i: 3
    }
  }
}
node {
  name: "ParseSingleExample/SerializedDependencies"
  op: "Identity"
  input: "parallel_read/common_queue_Dequeue:1"
  input: "^ParseSingleExample/SerializedIsScalar/Assert"
  attr {
    key: "T"
    value {
      type: DT_STRING
    }
  }
  attr {
    key: "_class"
    value {
      list {
        s: "loc:@parallel_read/common_queue_Dequeue"
      }
    }
  }
  attr {
    key: "_output_shapes"
    value {
      list {
        shape {
          unknown_rank: true
        }
      }
    }
  }
}
node {
  name: "ParseSingleExample/ExpandDims/dim"
  op: "Const"
  attr {
    key: "_output_shapes"
    value {
      list {
        shape {
        }
      }
    }
  }
  attr {
    key: "dtype"
    value {
      type: DT_INT32
    }
  }
  attr {
    key: "value"
    value {
      tensor {
        dtype: DT_INT32
        tensor_shape {
        }
        int_val: 0
      }
    }
  }
}
node {
  name: "ParseSingleExample/ExpandDims"
  op: "ExpandDims"
  input: "ParseSingleExample/SerializedDependencies"
  input: "ParseSingleExample/ExpandDims/dim"
  attr {
    key: "T"
    value {
      type: DT_STRING
    }
  }
  attr {
    key: "Tdim"
    value {
      type: DT_INT32
    }
  }
  attr {
    key: "_output_shapes"
    value {
      list {
        shape {
          unknown_rank: true
        }
      }
    }
  }
}
node {
  name: "ParseSingleExample/ParseExample/ParseExample/names"
  op: "Const"
  attr {
    key: "_output_shapes"
    value {
      list {
        shape {
          dim {
          }
        }
      }
    }
  }
  attr {
    key: "dtype"
    value {
      type: DT_STRING
    }
  }
  attr {
    key: "value"
    value {
      tensor {
        dtype: DT_STRING
        tensor_shape {
          dim {
          }
        }
      }
    }
  }
}
node {
  name: "ParseSingleExample/ParseExample/ParseExample/dense_keys_0"
  op: "Const"
  attr {
    key: "_output_shapes"
    value {
      list {
        shape {
        }
      }
    }
  }
  attr {
    key: "dtype"
    value {
      type: DT_STRING
    }
  }
  attr {
    key: "value"
    value {
      tensor {
        dtype: DT_STRING
        tensor_shape {
        }
        string_val: "label"
      }
    }
  }
}
node {
  name: "ParseSingleExample/ParseExample/ParseExample/dense_keys_1"
  op: "Const"
  attr {
    key: "_output_shapes"
    value {
      list {
        shape {
        }
      }
    }
  }
  attr {
    key: "dtype"
    value {
      type: DT_STRING
    }
  }
  attr {
    key: "value"
    value {
      tensor {
        dtype: DT_STRING
        tensor_shape {
        }
        string_val: "series"
      }
    }
  }
}
node {
  name: "ParseSingleExample/ParseExample/ParseExample/dense_keys_2"
  op: "Const"
  attr {
    key: "_output_shapes"
    value {
      list {
        shape {
        }
      }
    }
  }
  attr {
    key: "dtype"
    value {
      type: DT_STRING
    }
  }
  attr {
    key: "value"
    value {
      tensor {
        dtype: DT_STRING
        tensor_shape {
        }
        string_val: "series/x"
      }
    }
  }
}
node {
  name: "ParseSingleExample/ParseExample/ParseExample/dense_keys_3"
  op: "Const"
  attr {
    key: "_output_shapes"
    value {
      list {
        shape {
        }
      }
    }
  }
  attr {
    key: "dtype"
    value {
      type: DT_STRING
    }
  }
  attr {
    key: "value"
    value {
      tensor {
        dtype: DT_STRING
        tensor_shape {
        }
        string_val: "series/y"
      }
    }
  }
}
node {
  name: "ParseSingleExample/ParseExample/ParseExample/dense_keys_4"
  op: "Const"
  attr {
    key: "_output_shapes"
    value {
      list {
        shape {
        }
      }
    }
  }
  attr {
    key: "dtype"
    value {
      type: DT_STRING
    }
  }
  attr {
    key: "value"
    value {
      tensor {
        dtype: DT_STRING
        tensor_shape {
        }
        string_val: "series/z"
      }
    }
  }
}
node {
  name: "ParseSingleExample/ParseExample/ParseExample"
  op: "ParseExample"
  input: "ParseSingleExample/ExpandDims"
  input: "ParseSingleExample/ParseExample/ParseExample/names"
  input: "ParseSingleExample/ParseExample/ParseExample/dense_keys_0"
  input: "ParseSingleExample/ParseExample/ParseExample/dense_keys_1"
  input: "ParseSingleExample/ParseExample/ParseExample/dense_keys_2"
  input: "ParseSingleExample/ParseExample/ParseExample/dense_keys_3"
  input: "ParseSingleExample/ParseExample/ParseExample/dense_keys_4"
  input: "zeros_4"
  input: "zeros"
  input: "zeros_1"
  input: "zeros_2"
  input: "zeros_3"
  attr {
    key: "Ndense"
    value {
      i: 5
    }
  }
  attr {
    key: "Nsparse"
    value {
      i: 0
    }
  }
  attr {
    key: "Tdense"
    value {
      list {
        type: DT_INT64
        type: DT_FLOAT
        type: DT_FLOAT
        type: DT_FLOAT
        type: DT_FLOAT
      }
    }
  }
  attr {
    key: "_output_shapes"
    value {
      list {
        shape {
          dim {
            size: -1
          }
        }
        shape {
          dim {
            size: -1
          }
          dim {
            size: 120
          }
        }
        shape {
          dim {
            size: -1
          }
          dim {
            size: 40
          }
        }
        shape {
          dim {
            size: -1
          }
          dim {
            size: 40
          }
        }
        shape {
          dim {
            size: -1
          }
          dim {
            size: 40
          }
        }
      }
    }
  }
  attr {
    key: "dense_shapes"
    value {
      list {
        shape {
        }
        shape {
          dim {
            size: 120
          }
        }
        shape {
          dim {
            size: 40
          }
        }
        shape {
          dim {
            size: 40
          }
        }
        shape {
          dim {
            size: 40
          }
        }
      }
    }
  }
  attr {
    key: "sparse_types"
    value {
      list {
      }
    }
  }
}
node {
  name: "ParseSingleExample/Squeeze_label"
  op: "Squeeze"
  input: "ParseSingleExample/ParseExample/ParseExample"
  attr {
    key: "T"
    value {
      type: DT_INT64
    }
  }
  attr {
    key: "_output_shapes"
    value {
      list {
        shape {
        }
      }
    }
  }
  attr {
    key: "squeeze_dims"
    value {
      list {
        i: 0
      }
    }
  }
}
node {
  name: "ParseSingleExample/Squeeze_series"
  op: "Squeeze"
  input: "ParseSingleExample/ParseExample/ParseExample:1"
  attr {
    key: "T"
    value {
      type: DT_FLOAT
    }
  }
  attr {
    key: "_output_shapes"
    value {
      list {
        shape {
          dim {
            size: 120
          }
        }
      }
    }
  }
  attr {
    key: "squeeze_dims"
    value {
      list {
        i: 0
      }
    }
  }
}
node {
  name: "ParseSingleExample/Squeeze_series/x"
  op: "Squeeze"
  input: "ParseSingleExample/ParseExample/ParseExample:2"
  attr {
    key: "T"
    value {
      type: DT_FLOAT
    }
  }
  attr {
    key: "_output_shapes"
    value {
      list {
        shape {
          dim {
            size: 40
          }
        }
      }
    }
  }
  attr {
    key: "squeeze_dims"
    value {
      list {
        i: 0
      }
    }
  }
}
node {
  name: "ParseSingleExample/Squeeze_series/y"
  op: "Squeeze"
  input: "ParseSingleExample/ParseExample/ParseExample:3"
  attr {
    key: "T"
    value {
      type: DT_FLOAT
    }
  }
  attr {
    key: "_output_shapes"
    value {
      list {
        shape {
          dim {
            size: 40
          }
        }
      }
    }
  }
  attr {
    key: "squeeze_dims"
    value {
      list {
        i: 0
      }
    }
  }
}
node {
  name: "ParseSingleExample/Squeeze_series/z"
  op: "Squeeze"
  input: "ParseSingleExample/ParseExample/ParseExample:4"
  attr {
    key: "T"
    value {
      type: DT_FLOAT
    }
  }
  attr {
    key: "_output_shapes"
    value {
      list {
        shape {
          dim {
            size: 40
          }
        }
      }
    }
  }
  attr {
    key: "squeeze_dims"
    value {
      list {
        i: 0
      }
    }
  }
}
node {
  name: "Reshape/shape"
  op: "Const"
  attr {
    key: "_output_shapes"
    value {
      list {
        shape {
          dim {
            size: 1
          }
        }
      }
    }
  }
  attr {
    key: "dtype"
    value {
      type: DT_INT32
    }
  }
  attr {
    key: "value"
    value {
      tensor {
        dtype: DT_INT32
        tensor_shape {
          dim {
            size: 1
          }
        }
        int_val: 120
      }
    }
  }
}
node {
  name: "Reshape"
  op: "Reshape"
  input: "ParseSingleExample/Squeeze_series"
  input: "Reshape/shape"
  attr {
    key: "T"
    value {
      type: DT_FLOAT
    }
  }
  attr {
    key: "Tshape"
    value {
      type: DT_INT32
    }
  }
  attr {
    key: "_output_shapes"
    value {
      list {
        shape {
          dim {
            size: 120
          }
        }
      }
    }
  }
}
node {
  name: "Reshape_1/shape"
  op: "Const"
  attr {
    key: "_output_shapes"
    value {
      list {
        shape {
          dim {
          }
        }
      }
    }
  }
  attr {
    key: "dtype"
    value {
      type: DT_INT32
    }
  }
  attr {
    key: "value"
    value {
      tensor {
        dtype: DT_INT32
        tensor_shape {
          dim {
          }
        }
      }
    }
  }
}
node {
  name: "Reshape_1"
  op: "Reshape"
  input: "ParseSingleExample/Squeeze_label"
  input: "Reshape_1/shape"
  attr {
    key: "T"
    value {
      type: DT_INT64
    }
  }
  attr {
    key: "Tshape"
    value {
      type: DT_INT32
    }
  }
  attr {
    key: "_output_shapes"
    value {
      list {
        shape {
        }
      }
    }
  }
}
node {
  name: "Reshape_2/shape"
  op: "Const"
  attr {
    key: "_output_shapes"
    value {
      list {
        shape {
          dim {
            size: 1
          }
        }
      }
    }
  }
  attr {
    key: "dtype"
    value {
      type: DT_INT32
    }
  }
  attr {
    key: "value"
    value {
      tensor {
        dtype: DT_INT32
        tensor_shape {
          dim {
            size: 1
          }
        }
        int_val: 40
      }
    }
  }
}
node {
  name: "Reshape_2"
  op: "Reshape"
  input: "ParseSingleExample/Squeeze_series/z"
  input: "Reshape_2/shape"
  attr {
    key: "T"
    value {
      type: DT_FLOAT
    }
  }
  attr {
    key: "Tshape"
    value {
      type: DT_INT32
    }
  }
  attr {
    key: "_output_shapes"
    value {
      list {
        shape {
          dim {
            size: 40
          }
        }
      }
    }
  }
}
node {
  name: "Reshape_3/shape"
  op: "Const"
  attr {
    key: "_output_shapes"
    value {
      list {
        shape {
          dim {
            size: 1
          }
        }
      }
    }
  }
  attr {
    key: "dtype"
    value {
      type: DT_INT32
    }
  }
  attr {
    key: "value"
    value {
      tensor {
        dtype: DT_INT32
        tensor_shape {
          dim {
            size: 1
          }
        }
        int_val: 40
      }
    }
  }
}
node {
  name: "Reshape_3"
  op: "Reshape"
  input: "ParseSingleExample/Squeeze_series/x"
  input: "Reshape_3/shape"
  attr {
    key: "T"
    value {
      type: DT_FLOAT
    }
  }
  attr {
    key: "Tshape"
    value {
      type: DT_INT32
    }
  }
  attr {
    key: "_output_shapes"
    value {
      list {
        shape {
          dim {
            size: 40
          }
        }
      }
    }
  }
}
node {
  name: "Reshape_4/shape"
  op: "Const"
  attr {
    key: "_output_shapes"
    value {
      list {
        shape {
          dim {
            size: 1
          }
        }
      }
    }
  }
  attr {
    key: "dtype"
    value {
      type: DT_INT32
    }
  }
  attr {
    key: "value"
    value {
      tensor {
        dtype: DT_INT32
        tensor_shape {
          dim {
            size: 1
          }
        }
        int_val: 40
      }
    }
  }
}
node {
  name: "Reshape_4"
  op: "Reshape"
  input: "ParseSingleExample/Squeeze_series/y"
  input: "Reshape_4/shape"
  attr {
    key: "T"
    value {
      type: DT_FLOAT
    }
  }
  attr {
    key: "Tshape"
    value {
      type: DT_INT32
    }
  }
  attr {
    key: "_output_shapes"
    value {
      list {
        shape {
          dim {
            size: 40
          }
        }
      }
    }
  }
}
node {
  name: "Reshape_5/shape"
  op: "Const"
  attr {
    key: "_output_shapes"
    value {
      list {
        shape {
          dim {
            size: 1
          }
        }
      }
    }
  }
  attr {
    key: "dtype"
    value {
      type: DT_INT32
    }
  }
  attr {
    key: "value"
    value {
      tensor {
        dtype: DT_INT32
        tensor_shape {
          dim {
            size: 1
          }
        }
        int_val: 120
      }
    }
  }
}
node {
  name: "Reshape_5"
  op: "Reshape"
  input: "Reshape"
  input: "Reshape_5/shape"
  attr {
    key: "T"
    value {
      type: DT_FLOAT
    }
  }
  attr {
    key: "Tshape"
    value {
      type: DT_INT32
    }
  }
  attr {
    key: "_output_shapes"
    value {
      list {
        shape {
          dim {
            size: 120
          }
        }
      }
    }
  }
}
node {
  name: "Reshape_6/shape"
  op: "Const"
  attr {
    key: "_output_shapes"
    value {
      list {
        shape {
          dim {
          }
        }
      }
    }
  }
  attr {
    key: "dtype"
    value {
      type: DT_INT32
    }
  }
  attr {
    key: "value"
    value {
      tensor {
        dtype: DT_INT32
        tensor_shape {
          dim {
          }
        }
      }
    }
  }
}
node {
  name: "Reshape_6"
  op: "Reshape"
  input: "Reshape_1"
  input: "Reshape_6/shape"
  attr {
    key: "T"
    value {
      type: DT_INT64
    }
  }
  attr {
    key: "Tshape"
    value {
      type: DT_INT32
    }
  }
  attr {
    key: "_output_shapes"
    value {
      list {
        shape {
        }
      }
    }
  }
}
node {
  name: "Reshape_7/shape"
  op: "Const"
  attr {
    key: "_output_shapes"
    value {
      list {
        shape {
          dim {
            size: 1
          }
        }
      }
    }
  }
  attr {
    key: "dtype"
    value {
      type: DT_INT32
    }
  }
  attr {
    key: "value"
    value {
      tensor {
        dtype: DT_INT32
        tensor_shape {
          dim {
            size: 1
          }
        }
        int_val: 40
      }
    }
  }
}
node {
  name: "Reshape_7"
  op: "Reshape"
  input: "Reshape_2"
  input: "Reshape_7/shape"
  attr {
    key: "T"
    value {
      type: DT_FLOAT
    }
  }
  attr {
    key: "Tshape"
    value {
      type: DT_INT32
    }
  }
  attr {
    key: "_output_shapes"
    value {
      list {
        shape {
          dim {
            size: 40
          }
        }
      }
    }
  }
}
node {
  name: "Reshape_8/shape"
  op: "Const"
  attr {
    key: "_output_shapes"
    value {
      list {
        shape {
          dim {
            size: 1
          }
        }
      }
    }
  }
  attr {
    key: "dtype"
    value {
      type: DT_INT32
    }
  }
  attr {
    key: "value"
    value {
      tensor {
        dtype: DT_INT32
        tensor_shape {
          dim {
            size: 1
          }
        }
        int_val: 40
      }
    }
  }
}
node {
  name: "Reshape_8"
  op: "Reshape"
  input: "Reshape_3"
  input: "Reshape_8/shape"
  attr {
    key: "T"
    value {
      type: DT_FLOAT
    }
  }
  attr {
    key: "Tshape"
    value {
      type: DT_INT32
    }
  }
  attr {
    key: "_output_shapes"
    value {
      list {
        shape {
          dim {
            size: 40
          }
        }
      }
    }
  }
}
node {
  name: "Reshape_9/shape"
  op: "Const"
  attr {
    key: "_output_shapes"
    value {
      list {
        shape {
          dim {
            size: 1
          }
        }
      }
    }
  }
  attr {
    key: "dtype"
    value {
      type: DT_INT32
    }
  }
  attr {
    key: "value"
    value {
      tensor {
        dtype: DT_INT32
        tensor_shape {
          dim {
            size: 1
          }
        }
        int_val: 40
      }
    }
  }
}
node {
  name: "Reshape_9"
  op: "Reshape"
  input: "Reshape_4"
  input: "Reshape_9/shape"
  attr {
    key: "T"
    value {
      type: DT_FLOAT
    }
  }
  attr {
    key: "Tshape"
    value {
      type: DT_INT32
    }
  }
  attr {
    key: "_output_shapes"
    value {
      list {
        shape {
          dim {
            size: 40
          }
        }
      }
    }
  }
}
node {
  name: "ToInt32"
  op: "Cast"
  input: "Reshape_6"
  attr {
    key: "DstT"
    value {
      type: DT_INT32
    }
  }
  attr {
    key: "SrcT"
    value {
      type: DT_INT64
    }
  }
  attr {
    key: "_output_shapes"
    value {
      list {
        shape {
        }
      }
    }
  }
}
node {
  name: "OneHotEncoding/ToInt64"
  op: "Cast"
  input: "ToInt32"
  attr {
    key: "DstT"
    value {
      type: DT_INT64
    }
  }
  attr {
    key: "SrcT"
    value {
      type: DT_INT32
    }
  }
  attr {
    key: "_output_shapes"
    value {
      list {
        shape {
        }
      }
    }
  }
}
node {
  name: "OneHotEncoding/one_hot/Const"
  op: "Const"
  attr {
    key: "_output_shapes"
    value {
      list {
        shape {
        }
      }
    }
  }
  attr {
    key: "dtype"
    value {
      type: DT_FLOAT
    }
  }
  attr {
    key: "value"
    value {
      tensor {
        dtype: DT_FLOAT
        tensor_shape {
        }
        float_val: 1.0
      }
    }
  }
}
node {
  name: "OneHotEncoding/one_hot/Const_1"
  op: "Const"
  attr {
    key: "_output_shapes"
    value {
      list {
        shape {
        }
      }
    }
  }
  attr {
    key: "dtype"
    value {
      type: DT_FLOAT
    }
  }
  attr {
    key: "value"
    value {
      tensor {
        dtype: DT_FLOAT
        tensor_shape {
        }
        float_val: 0.0
      }
    }
  }
}
node {
  name: "OneHotEncoding/one_hot/depth"
  op: "Const"
  attr {
    key: "_output_shapes"
    value {
      list {
        shape {
        }
      }
    }
  }
  attr {
    key: "dtype"
    value {
      type: DT_INT32
    }
  }
  attr {
    key: "value"
    value {
      tensor {
        dtype: DT_INT32
        tensor_shape {
        }
        int_val: 4
      }
    }
  }
}
node {
  name: "OneHotEncoding/one_hot/on_value"
  op: "Const"
  attr {
    key: "_output_shapes"
    value {
      list {
        shape {
        }
      }
    }
  }
  attr {
    key: "dtype"
    value {
      type: DT_FLOAT
    }
  }
  attr {
    key: "value"
    value {
      tensor {
        dtype: DT_FLOAT
        tensor_shape {
        }
        float_val: 1.0
      }
    }
  }
}
node {
  name: "OneHotEncoding/one_hot/off_value"
  op: "Const"
  attr {
    key: "_output_shapes"
    value {
      list {
        shape {
        }
      }
    }
  }
  attr {
    key: "dtype"
    value {
      type: DT_FLOAT
    }
  }
  attr {
    key: "value"
    value {
      tensor {
        dtype: DT_FLOAT
        tensor_shape {
        }
        float_val: 0.0
      }
    }
  }
}
node {
  name: "OneHotEncoding/one_hot"
  op: "OneHot"
  input: "OneHotEncoding/ToInt64"
  input: "OneHotEncoding/one_hot/depth"
  input: "OneHotEncoding/one_hot/on_value"
  input: "OneHotEncoding/one_hot/off_value"
  attr {
    key: "T"
    value {
      type: DT_FLOAT
    }
  }
  attr {
    key: "TI"
    value {
      type: DT_INT64
    }
  }
  attr {
    key: "_output_shapes"
    value {
      list {
        shape {
          dim {
            size: 4
          }
        }
      }
    }
  }
  attr {
    key: "axis"
    value {
      i: -1
    }
  }
}
node {
  name: "ToInt32_1"
  op: "Cast"
  input: "OneHotEncoding/one_hot"
  attr {
    key: "DstT"
    value {
      type: DT_INT32
    }
  }
  attr {
    key: "SrcT"
    value {
      type: DT_FLOAT
    }
  }
  attr {
    key: "_output_shapes"
    value {
      list {
        shape {
          dim {
            size: 4
          }
        }
      }
    }
  }
}
node {
  name: "batch/Const"
  op: "Const"
  attr {
    key: "_output_shapes"
    value {
      list {
        shape {
        }
      }
    }
  }
  attr {
    key: "dtype"
    value {
      type: DT_BOOL
    }
  }
  attr {
    key: "value"
    value {
      tensor {
        dtype: DT_BOOL
        tensor_shape {
        }
        bool_val: true
      }
    }
  }
}
node {
  name: "batch/fifo_queue"
  op: "FIFOQueueV2"
  attr {
    key: "_output_shapes"
    value {
      list {
        shape {
        }
      }
    }
  }
  attr {
    key: "capacity"
    value {
      i: 32
    }
  }
  attr {
    key: "component_types"
    value {
      list {
        type: DT_FLOAT
        type: DT_INT32
        type: DT_INT32
      }
    }
  }
  attr {
    key: "container"
    value {
      s: ""
    }
  }
  attr {
    key: "shapes"
    value {
      list {
        shape {
          dim {
            size: 120
          }
        }
        shape {
        }
        shape {
          dim {
            size: 4
          }
        }
      }
    }
  }
  attr {
    key: "shared_name"
    value {
      s: ""
    }
  }
}
node {
  name: "batch/fifo_queue_enqueue"
  op: "QueueEnqueueV2"
  input: "batch/fifo_queue"
  input: "Reshape_5"
  input: "ToInt32"
  input: "ToInt32_1"
  attr {
    key: "Tcomponents"
    value {
      list {
        type: DT_FLOAT
        type: DT_INT32
        type: DT_INT32
      }
    }
  }
  attr {
    key: "timeout_ms"
    value {
      i: -1
    }
  }
}
node {
  name: "batch/fifo_queue_Close"
  op: "QueueCloseV2"
  input: "batch/fifo_queue"
  attr {
    key: "cancel_pending_enqueues"
    value {
      b: false
    }
  }
}
node {
  name: "batch/fifo_queue_Close_1"
  op: "QueueCloseV2"
  input: "batch/fifo_queue"
  attr {
    key: "cancel_pending_enqueues"
    value {
      b: true
    }
  }
}
node {
  name: "batch/fifo_queue_Size"
  op: "QueueSizeV2"
  input: "batch/fifo_queue"
  attr {
    key: "_output_shapes"
    value {
      list {
        shape {
        }
      }
    }
  }
}
node {
  name: "batch/Cast"
  op: "Cast"
  input: "batch/fifo_queue_Size"
  attr {
    key: "DstT"
    value {
      type: DT_FLOAT
    }
  }
  attr {
    key: "SrcT"
    value {
      type: DT_INT32
    }
  }
  attr {
    key: "_output_shapes"
    value {
      list {
        shape {
        }
      }
    }
  }
}
node {
  name: "batch/mul/y"
  op: "Const"
  attr {
    key: "_output_shapes"
    value {
      list {
        shape {
        }
      }
    }
  }
  attr {
    key: "dtype"
    value {
      type: DT_FLOAT
    }
  }
  attr {
    key: "value"
    value {
      tensor {
        dtype: DT_FLOAT
        tensor_shape {
        }
        float_val: 0.03125
      }
    }
  }
}
node {
  name: "batch/mul"
  op: "Mul"
  input: "batch/Cast"
  input: "batch/mul/y"
  attr {
    key: "T"
    value {
      type: DT_FLOAT
    }
  }
  attr {
    key: "_output_shapes"
    value {
      list {
        shape {
        }
      }
    }
  }
}
node {
  name: "batch/fraction_of_32_full/tags"
  op: "Const"
  attr {
    key: "_output_shapes"
    value {
      list {
        shape {
        }
      }
    }
  }
  attr {
    key: "dtype"
    value {
      type: DT_STRING
    }
  }
  attr {
    key: "value"
    value {
      tensor {
        dtype: DT_STRING
        tensor_shape {
        }
        string_val: "batch/fraction_of_32_full"
      }
    }
  }
}
node {
  name: "batch/fraction_of_32_full"
  op: "ScalarSummary"
  input: "batch/fraction_of_32_full/tags"
  input: "batch/mul"
  attr {
    key: "T"
    value {
      type: DT_FLOAT
    }
  }
  attr {
    key: "_output_shapes"
    value {
      list {
        shape {
        }
      }
    }
  }
}
node {
  name: "batch/n"
  op: "Const"
  attr {
    key: "_output_shapes"
    value {
      list {
        shape {
        }
      }
    }
  }
  attr {
    key: "dtype"
    value {
      type: DT_INT32
    }
  }
  attr {
    key: "value"
    value {
      tensor {
        dtype: DT_INT32
        tensor_shape {
        }
        int_val: 10
      }
    }
  }
}
node {
  name: "batch"
  op: "QueueDequeueUpToV2"
  input: "batch/fifo_queue"
  input: "batch/n"
  attr {
    key: "_output_shapes"
    value {
      list {
        shape {
          dim {
            size: -1
          }
          dim {
            size: 120
          }
        }
        shape {
          dim {
            size: -1
          }
        }
        shape {
          dim {
            size: -1
          }
          dim {
            size: 4
          }
        }
      }
    }
  }
  attr {
    key: "component_types"
    value {
      list {
        type: DT_FLOAT
        type: DT_INT32
        type: DT_INT32
      }
    }
  }
  attr {
    key: "timeout_ms"
    value {
      i: -1
    }
  }
}
node {
  name: "parallel_read_1/filenames/Const"
  op: "Const"
  attr {
    key: "_output_shapes"
    value {
      list {
        shape {
          dim {
            size: 1
          }
        }
      }
    }
  }
  attr {
    key: "dtype"
    value {
      type: DT_STRING
    }
  }
  attr {
    key: "value"
    value {
      tensor {
        dtype: DT_STRING
        tensor_shape {
          dim {
            size: 1
          }
        }
        string_val: "dataset/ges_validation.tfrecords"
      }
    }
  }
}
node {
  name: "parallel_read_1/filenames/Size"
  op: "Const"
  attr {
    key: "_output_shapes"
    value {
      list {
        shape {
        }
      }
    }
  }
  attr {
    key: "dtype"
    value {
      type: DT_INT32
    }
  }
  attr {
    key: "value"
    value {
      tensor {
        dtype: DT_INT32
        tensor_shape {
        }
        int_val: 1
      }
    }
  }
}
node {
  name: "parallel_read_1/filenames/Greater/y"
  op: "Const"
  attr {
    key: "_output_shapes"
    value {
      list {
        shape {
        }
      }
    }
  }
  attr {
    key: "dtype"
    value {
      type: DT_INT32
    }
  }
  attr {
    key: "value"
    value {
      tensor {
        dtype: DT_INT32
        tensor_shape {
        }
        int_val: 0
      }
    }
  }
}
node {
  name: "parallel_read_1/filenames/Greater"
  op: "Greater"
  input: "parallel_read_1/filenames/Size"
  input: "parallel_read_1/filenames/Greater/y"
  attr {
    key: "T"
    value {
      type: DT_INT32
    }
  }
  attr {
    key: "_output_shapes"
    value {
      list {
        shape {
        }
      }
    }
  }
}
node {
  name: "parallel_read_1/filenames/Assert/Const"
  op: "Const"
  attr {
    key: "_output_shapes"
    value {
      list {
        shape {
        }
      }
    }
  }
  attr {
    key: "dtype"
    value {
      type: DT_STRING
    }
  }
  attr {
    key: "value"
    value {
      tensor {
        dtype: DT_STRING
        tensor_shape {
        }
        string_val: "string_input_producer requires a non-null input tensor"
      }
    }
  }
}
node {
  name: "parallel_read_1/filenames/Assert/Assert/data_0"
  op: "Const"
  attr {
    key: "_output_shapes"
    value {
      list {
        shape {
        }
      }
    }
  }
  attr {
    key: "dtype"
    value {
      type: DT_STRING
    }
  }
  attr {
    key: "value"
    value {
      tensor {
        dtype: DT_STRING
        tensor_shape {
        }
        string_val: "string_input_producer requires a non-null input tensor"
      }
    }
  }
}
node {
  name: "parallel_read_1/filenames/Assert/Assert"
  op: "Assert"
  input: "parallel_read_1/filenames/Greater"
  input: "parallel_read_1/filenames/Assert/Assert/data_0"
  attr {
    key: "T"
    value {
      list {
        type: DT_STRING
      }
    }
  }
  attr {
    key: "summarize"
    value {
      i: 3
    }
  }
}
node {
  name: "parallel_read_1/filenames/Identity"
  op: "Identity"
  input: "parallel_read_1/filenames/Const"
  input: "^parallel_read_1/filenames/Assert/Assert"
  attr {
    key: "T"
    value {
      type: DT_STRING
    }
  }
  attr {
    key: "_output_shapes"
    value {
      list {
        shape {
          dim {
            size: 1
          }
        }
      }
    }
  }
}
node {
  name: "parallel_read_1/filenames"
  op: "FIFOQueueV2"
  attr {
    key: "_output_shapes"
    value {
      list {
        shape {
        }
      }
    }
  }
  attr {
    key: "capacity"
    value {
      i: 32
    }
  }
  attr {
    key: "component_types"
    value {
      list {
        type: DT_STRING
      }
    }
  }
  attr {
    key: "container"
    value {
      s: ""
    }
  }
  attr {
    key: "shapes"
    value {
      list {
        shape {
        }
      }
    }
  }
  attr {
    key: "shared_name"
    value {
      s: ""
    }
  }
}
node {
  name: "parallel_read_1/filenames/filenames_EnqueueMany"
  op: "QueueEnqueueManyV2"
  input: "parallel_read_1/filenames"
  input: "parallel_read_1/filenames/Identity"
  attr {
    key: "Tcomponents"
    value {
      list {
        type: DT_STRING
      }
    }
  }
  attr {
    key: "timeout_ms"
    value {
      i: -1
    }
  }
}
node {
  name: "parallel_read_1/filenames/filenames_Close"
  op: "QueueCloseV2"
  input: "parallel_read_1/filenames"
  attr {
    key: "cancel_pending_enqueues"
    value {
      b: false
    }
  }
}
node {
  name: "parallel_read_1/filenames/filenames_Close_1"
  op: "QueueCloseV2"
  input: "parallel_read_1/filenames"
  attr {
    key: "cancel_pending_enqueues"
    value {
      b: true
    }
  }
}
node {
  name: "parallel_read_1/filenames/filenames_Size"
  op: "QueueSizeV2"
  input: "parallel_read_1/filenames"
  attr {
    key: "_output_shapes"
    value {
      list {
        shape {
        }
      }
    }
  }
}
node {
  name: "parallel_read_1/filenames/Cast"
  op: "Cast"
  input: "parallel_read_1/filenames/filenames_Size"
  attr {
    key: "DstT"
    value {
      type: DT_FLOAT
    }
  }
  attr {
    key: "SrcT"
    value {
      type: DT_INT32
    }
  }
  attr {
    key: "_output_shapes"
    value {
      list {
        shape {
        }
      }
    }
  }
}
node {
  name: "parallel_read_1/filenames/mul/y"
  op: "Const"
  attr {
    key: "_output_shapes"
    value {
      list {
        shape {
        }
      }
    }
  }
  attr {
    key: "dtype"
    value {
      type: DT_FLOAT
    }
  }
  attr {
    key: "value"
    value {
      tensor {
        dtype: DT_FLOAT
        tensor_shape {
        }
        float_val: 0.03125
      }
    }
  }
}
node {
  name: "parallel_read_1/filenames/mul"
  op: "Mul"
  input: "parallel_read_1/filenames/Cast"
  input: "parallel_read_1/filenames/mul/y"
  attr {
    key: "T"
    value {
      type: DT_FLOAT
    }
  }
  attr {
    key: "_output_shapes"
    value {
      list {
        shape {
        }
      }
    }
  }
}
node {
  name: "parallel_read_1/filenames/fraction_of_32_full/tags"
  op: "Const"
  attr {
    key: "_output_shapes"
    value {
      list {
        shape {
        }
      }
    }
  }
  attr {
    key: "dtype"
    value {
      type: DT_STRING
    }
  }
  attr {
    key: "value"
    value {
      tensor {
        dtype: DT_STRING
        tensor_shape {
        }
        string_val: "parallel_read_1/filenames/fraction_of_32_full"
      }
    }
  }
}
node {
  name: "parallel_read_1/filenames/fraction_of_32_full"
  op: "ScalarSummary"
  input: "parallel_read_1/filenames/fraction_of_32_full/tags"
  input: "parallel_read_1/filenames/mul"
  attr {
    key: "T"
    value {
      type: DT_FLOAT
    }
  }
  attr {
    key: "_output_shapes"
    value {
      list {
        shape {
        }
      }
    }
  }
}
node {
  name: "parallel_read_1/common_queue"
  op: "FIFOQueueV2"
  attr {
    key: "_output_shapes"
    value {
      list {
        shape {
        }
      }
    }
  }
  attr {
    key: "capacity"
    value {
      i: 70
    }
  }
  attr {
    key: "component_types"
    value {
      list {
        type: DT_STRING
        type: DT_STRING
      }
    }
  }
  attr {
    key: "container"
    value {
      s: ""
    }
  }
  attr {
    key: "shapes"
    value {
      list {
      }
    }
  }
  attr {
    key: "shared_name"
    value {
      s: ""
    }
  }
}
node {
  name: "parallel_read_1/common_queue_Size"
  op: "QueueSizeV2"
  input: "parallel_read_1/common_queue"
  attr {
    key: "_output_shapes"
    value {
      list {
        shape {
        }
      }
    }
  }
}
node {
  name: "parallel_read_1/ToFloat"
  op: "Cast"
  input: "parallel_read_1/common_queue_Size"
  attr {
    key: "DstT"
    value {
      type: DT_FLOAT
    }
  }
  attr {
    key: "SrcT"
    value {
      type: DT_INT32
    }
  }
  attr {
    key: "_output_shapes"
    value {
      list {
        shape {
        }
      }
    }
  }
}
node {
  name: "parallel_read_1/mul/y"
  op: "Const"
  attr {
    key: "_output_shapes"
    value {
      list {
        shape {
        }
      }
    }
  }
  attr {
    key: "dtype"
    value {
      type: DT_FLOAT
    }
  }
  attr {
    key: "value"
    value {
      tensor {
        dtype: DT_FLOAT
        tensor_shape {
        }
        float_val: 0.0142857143655
      }
    }
  }
}
node {
  name: "parallel_read_1/mul"
  op: "Mul"
  input: "parallel_read_1/ToFloat"
  input: "parallel_read_1/mul/y"
  attr {
    key: "T"
    value {
      type: DT_FLOAT
    }
  }
  attr {
    key: "_output_shapes"
    value {
      list {
        shape {
        }
      }
    }
  }
}
node {
  name: "parallel_read_1/fraction_of_70_full/tags"
  op: "Const"
  attr {
    key: "_output_shapes"
    value {
      list {
        shape {
        }
      }
    }
  }
  attr {
    key: "dtype"
    value {
      type: DT_STRING
    }
  }
  attr {
    key: "value"
    value {
      tensor {
        dtype: DT_STRING
        tensor_shape {
        }
        string_val: "parallel_read_1/fraction_of_70_full"
      }
    }
  }
}
node {
  name: "parallel_read_1/fraction_of_70_full"
  op: "ScalarSummary"
  input: "parallel_read_1/fraction_of_70_full/tags"
  input: "parallel_read_1/mul"
  attr {
    key: "T"
    value {
      type: DT_FLOAT
    }
  }
  attr {
    key: "_output_shapes"
    value {
      list {
        shape {
        }
      }
    }
  }
}
node {
  name: "parallel_read_1/TFRecordReaderV2"
  op: "TFRecordReaderV2"
  attr {
    key: "_output_shapes"
    value {
      list {
        shape {
        }
      }
    }
  }
  attr {
    key: "compression_type"
    value {
      s: ""
    }
  }
  attr {
    key: "container"
    value {
      s: ""
    }
  }
  attr {
    key: "shared_name"
    value {
      s: ""
    }
  }
}
node {
  name: "parallel_read_1/ReaderReadV2"
  op: "ReaderReadV2"
  input: "parallel_read_1/TFRecordReaderV2"
  input: "parallel_read_1/filenames"
  attr {
    key: "_output_shapes"
    value {
      list {
        shape {
        }
        shape {
        }
      }
    }
  }
}
node {
  name: "parallel_read_1/common_queue_enqueue"
  op: "QueueEnqueueV2"
  input: "parallel_read_1/common_queue"
  input: "parallel_read_1/ReaderReadV2"
  input: "parallel_read_1/ReaderReadV2:1"
  attr {
    key: "Tcomponents"
    value {
      list {
        type: DT_STRING
        type: DT_STRING
      }
    }
  }
  attr {
    key: "timeout_ms"
    value {
      i: -1
    }
  }
}
node {
  name: "parallel_read_1/common_queue_Close"
  op: "QueueCloseV2"
  input: "parallel_read_1/common_queue"
  attr {
    key: "cancel_pending_enqueues"
    value {
      b: false
    }
  }
}
node {
  name: "parallel_read_1/common_queue_Close_1"
  op: "QueueCloseV2"
  input: "parallel_read_1/common_queue"
  attr {
    key: "cancel_pending_enqueues"
    value {
      b: true
    }
  }
}
node {
  name: "parallel_read_1/common_queue_Dequeue"
  op: "QueueDequeueV2"
  input: "parallel_read_1/common_queue"
  attr {
    key: "_output_shapes"
    value {
      list {
        shape {
          unknown_rank: true
        }
        shape {
          unknown_rank: true
        }
      }
    }
  }
  attr {
    key: "component_types"
    value {
      list {
        type: DT_STRING
        type: DT_STRING
      }
    }
  }
  attr {
    key: "timeout_ms"
    value {
      i: -1
    }
  }
}
node {
  name: "ParseSingleExample_1/Rank"
  op: "Rank"
  input: "parallel_read_1/common_queue_Dequeue:1"
  attr {
    key: "T"
    value {
      type: DT_STRING
    }
  }
  attr {
    key: "_output_shapes"
    value {
      list {
        shape {
        }
      }
    }
  }
}
node {
  name: "ParseSingleExample_1/Equal/y"
  op: "Const"
  attr {
    key: "_output_shapes"
    value {
      list {
        shape {
        }
      }
    }
  }
  attr {
    key: "dtype"
    value {
      type: DT_INT32
    }
  }
  attr {
    key: "value"
    value {
      tensor {
        dtype: DT_INT32
        tensor_shape {
        }
        int_val: 0
      }
    }
  }
}
node {
  name: "ParseSingleExample_1/Equal"
  op: "Equal"
  input: "ParseSingleExample_1/Rank"
  input: "ParseSingleExample_1/Equal/y"
  attr {
    key: "T"
    value {
      type: DT_INT32
    }
  }
  attr {
    key: "_output_shapes"
    value {
      list {
        shape {
        }
      }
    }
  }
}
node {
  name: "ParseSingleExample_1/SerializedIsScalar/Const"
  op: "Const"
  attr {
    key: "_output_shapes"
    value {
      list {
        shape {
        }
      }
    }
  }
  attr {
    key: "dtype"
    value {
      type: DT_STRING
    }
  }
  attr {
    key: "value"
    value {
      tensor {
        dtype: DT_STRING
        tensor_shape {
        }
        string_val: "Input serialized must be a scalar"
      }
    }
  }
}
node {
  name: "ParseSingleExample_1/SerializedIsScalar/Assert/data_0"
  op: "Const"
  attr {
    key: "_output_shapes"
    value {
      list {
        shape {
        }
      }
    }
  }
  attr {
    key: "dtype"
    value {
      type: DT_STRING
    }
  }
  attr {
    key: "value"
    value {
      tensor {
        dtype: DT_STRING
        tensor_shape {
        }
        string_val: "Input serialized must be a scalar"
      }
    }
  }
}
node {
  name: "ParseSingleExample_1/SerializedIsScalar/Assert"
  op: "Assert"
  input: "ParseSingleExample_1/Equal"
  input: "ParseSingleExample_1/SerializedIsScalar/Assert/data_0"
  attr {
    key: "T"
    value {
      list {
        type: DT_STRING
      }
    }
  }
  attr {
    key: "summarize"
    value {
      i: 3
    }
  }
}
node {
  name: "ParseSingleExample_1/SerializedDependencies"
  op: "Identity"
  input: "parallel_read_1/common_queue_Dequeue:1"
  input: "^ParseSingleExample_1/SerializedIsScalar/Assert"
  attr {
    key: "T"
    value {
      type: DT_STRING
    }
  }
  attr {
    key: "_class"
    value {
      list {
        s: "loc:@parallel_read_1/common_queue_Dequeue"
      }
    }
  }
  attr {
    key: "_output_shapes"
    value {
      list {
        shape {
          unknown_rank: true
        }
      }
    }
  }
}
node {
  name: "ParseSingleExample_1/ExpandDims/dim"
  op: "Const"
  attr {
    key: "_output_shapes"
    value {
      list {
        shape {
        }
      }
    }
  }
  attr {
    key: "dtype"
    value {
      type: DT_INT32
    }
  }
  attr {
    key: "value"
    value {
      tensor {
        dtype: DT_INT32
        tensor_shape {
        }
        int_val: 0
      }
    }
  }
}
node {
  name: "ParseSingleExample_1/ExpandDims"
  op: "ExpandDims"
  input: "ParseSingleExample_1/SerializedDependencies"
  input: "ParseSingleExample_1/ExpandDims/dim"
  attr {
    key: "T"
    value {
      type: DT_STRING
    }
  }
  attr {
    key: "Tdim"
    value {
      type: DT_INT32
    }
  }
  attr {
    key: "_output_shapes"
    value {
      list {
        shape {
          unknown_rank: true
        }
      }
    }
  }
}
node {
  name: "ParseSingleExample_1/ParseExample/ParseExample/names"
  op: "Const"
  attr {
    key: "_output_shapes"
    value {
      list {
        shape {
          dim {
          }
        }
      }
    }
  }
  attr {
    key: "dtype"
    value {
      type: DT_STRING
    }
  }
  attr {
    key: "value"
    value {
      tensor {
        dtype: DT_STRING
        tensor_shape {
          dim {
          }
        }
      }
    }
  }
}
node {
  name: "ParseSingleExample_1/ParseExample/ParseExample/dense_keys_0"
  op: "Const"
  attr {
    key: "_output_shapes"
    value {
      list {
        shape {
        }
      }
    }
  }
  attr {
    key: "dtype"
    value {
      type: DT_STRING
    }
  }
  attr {
    key: "value"
    value {
      tensor {
        dtype: DT_STRING
        tensor_shape {
        }
        string_val: "label"
      }
    }
  }
}
node {
  name: "ParseSingleExample_1/ParseExample/ParseExample/dense_keys_1"
  op: "Const"
  attr {
    key: "_output_shapes"
    value {
      list {
        shape {
        }
      }
    }
  }
  attr {
    key: "dtype"
    value {
      type: DT_STRING
    }
  }
  attr {
    key: "value"
    value {
      tensor {
        dtype: DT_STRING
        tensor_shape {
        }
        string_val: "series"
      }
    }
  }
}
node {
  name: "ParseSingleExample_1/ParseExample/ParseExample/dense_keys_2"
  op: "Const"
  attr {
    key: "_output_shapes"
    value {
      list {
        shape {
        }
      }
    }
  }
  attr {
    key: "dtype"
    value {
      type: DT_STRING
    }
  }
  attr {
    key: "value"
    value {
      tensor {
        dtype: DT_STRING
        tensor_shape {
        }
        string_val: "series/x"
      }
    }
  }
}
node {
  name: "ParseSingleExample_1/ParseExample/ParseExample/dense_keys_3"
  op: "Const"
  attr {
    key: "_output_shapes"
    value {
      list {
        shape {
        }
      }
    }
  }
  attr {
    key: "dtype"
    value {
      type: DT_STRING
    }
  }
  attr {
    key: "value"
    value {
      tensor {
        dtype: DT_STRING
        tensor_shape {
        }
        string_val: "series/y"
      }
    }
  }
}
node {
  name: "ParseSingleExample_1/ParseExample/ParseExample/dense_keys_4"
  op: "Const"
  attr {
    key: "_output_shapes"
    value {
      list {
        shape {
        }
      }
    }
  }
  attr {
    key: "dtype"
    value {
      type: DT_STRING
    }
  }
  attr {
    key: "value"
    value {
      tensor {
        dtype: DT_STRING
        tensor_shape {
        }
        string_val: "series/z"
      }
    }
  }
}
node {
  name: "ParseSingleExample_1/ParseExample/ParseExample"
  op: "ParseExample"
  input: "ParseSingleExample_1/ExpandDims"
  input: "ParseSingleExample_1/ParseExample/ParseExample/names"
  input: "ParseSingleExample_1/ParseExample/ParseExample/dense_keys_0"
  input: "ParseSingleExample_1/ParseExample/ParseExample/dense_keys_1"
  input: "ParseSingleExample_1/ParseExample/ParseExample/dense_keys_2"
  input: "ParseSingleExample_1/ParseExample/ParseExample/dense_keys_3"
  input: "ParseSingleExample_1/ParseExample/ParseExample/dense_keys_4"
  input: "zeros_9"
  input: "zeros_5"
  input: "zeros_6"
  input: "zeros_7"
  input: "zeros_8"
  attr {
    key: "Ndense"
    value {
      i: 5
    }
  }
  attr {
    key: "Nsparse"
    value {
      i: 0
    }
  }
  attr {
    key: "Tdense"
    value {
      list {
        type: DT_INT64
        type: DT_FLOAT
        type: DT_FLOAT
        type: DT_FLOAT
        type: DT_FLOAT
      }
    }
  }
  attr {
    key: "_output_shapes"
    value {
      list {
        shape {
          dim {
            size: -1
          }
        }
        shape {
          dim {
            size: -1
          }
          dim {
            size: 120
          }
        }
        shape {
          dim {
            size: -1
          }
          dim {
            size: 40
          }
        }
        shape {
          dim {
            size: -1
          }
          dim {
            size: 40
          }
        }
        shape {
          dim {
            size: -1
          }
          dim {
            size: 40
          }
        }
      }
    }
  }
  attr {
    key: "dense_shapes"
    value {
      list {
        shape {
        }
        shape {
          dim {
            size: 120
          }
        }
        shape {
          dim {
            size: 40
          }
        }
        shape {
          dim {
            size: 40
          }
        }
        shape {
          dim {
            size: 40
          }
        }
      }
    }
  }
  attr {
    key: "sparse_types"
    value {
      list {
      }
    }
  }
}
node {
  name: "ParseSingleExample_1/Squeeze_label"
  op: "Squeeze"
  input: "ParseSingleExample_1/ParseExample/ParseExample"
  attr {
    key: "T"
    value {
      type: DT_INT64
    }
  }
  attr {
    key: "_output_shapes"
    value {
      list {
        shape {
        }
      }
    }
  }
  attr {
    key: "squeeze_dims"
    value {
      list {
        i: 0
      }
    }
  }
}
node {
  name: "ParseSingleExample_1/Squeeze_series"
  op: "Squeeze"
  input: "ParseSingleExample_1/ParseExample/ParseExample:1"
  attr {
    key: "T"
    value {
      type: DT_FLOAT
    }
  }
  attr {
    key: "_output_shapes"
    value {
      list {
        shape {
          dim {
            size: 120
          }
        }
      }
    }
  }
  attr {
    key: "squeeze_dims"
    value {
      list {
        i: 0
      }
    }
  }
}
node {
  name: "ParseSingleExample_1/Squeeze_series/x"
  op: "Squeeze"
  input: "ParseSingleExample_1/ParseExample/ParseExample:2"
  attr {
    key: "T"
    value {
      type: DT_FLOAT
    }
  }
  attr {
    key: "_output_shapes"
    value {
      list {
        shape {
          dim {
            size: 40
          }
        }
      }
    }
  }
  attr {
    key: "squeeze_dims"
    value {
      list {
        i: 0
      }
    }
  }
}
node {
  name: "ParseSingleExample_1/Squeeze_series/y"
  op: "Squeeze"
  input: "ParseSingleExample_1/ParseExample/ParseExample:3"
  attr {
    key: "T"
    value {
      type: DT_FLOAT
    }
  }
  attr {
    key: "_output_shapes"
    value {
      list {
        shape {
          dim {
            size: 40
          }
        }
      }
    }
  }
  attr {
    key: "squeeze_dims"
    value {
      list {
        i: 0
      }
    }
  }
}
node {
  name: "ParseSingleExample_1/Squeeze_series/z"
  op: "Squeeze"
  input: "ParseSingleExample_1/ParseExample/ParseExample:4"
  attr {
    key: "T"
    value {
      type: DT_FLOAT
    }
  }
  attr {
    key: "_output_shapes"
    value {
      list {
        shape {
          dim {
            size: 40
          }
        }
      }
    }
  }
  attr {
    key: "squeeze_dims"
    value {
      list {
        i: 0
      }
    }
  }
}
node {
  name: "Reshape_10/shape"
  op: "Const"
  attr {
    key: "_output_shapes"
    value {
      list {
        shape {
          dim {
            size: 1
          }
        }
      }
    }
  }
  attr {
    key: "dtype"
    value {
      type: DT_INT32
    }
  }
  attr {
    key: "value"
    value {
      tensor {
        dtype: DT_INT32
        tensor_shape {
          dim {
            size: 1
          }
        }
        int_val: 120
      }
    }
  }
}
node {
  name: "Reshape_10"
  op: "Reshape"
  input: "ParseSingleExample_1/Squeeze_series"
  input: "Reshape_10/shape"
  attr {
    key: "T"
    value {
      type: DT_FLOAT
    }
  }
  attr {
    key: "Tshape"
    value {
      type: DT_INT32
    }
  }
  attr {
    key: "_output_shapes"
    value {
      list {
        shape {
          dim {
            size: 120
          }
        }
      }
    }
  }
}
node {
  name: "Reshape_11/shape"
  op: "Const"
  attr {
    key: "_output_shapes"
    value {
      list {
        shape {
          dim {
          }
        }
      }
    }
  }
  attr {
    key: "dtype"
    value {
      type: DT_INT32
    }
  }
  attr {
    key: "value"
    value {
      tensor {
        dtype: DT_INT32
        tensor_shape {
          dim {
          }
        }
      }
    }
  }
}
node {
  name: "Reshape_11"
  op: "Reshape"
  input: "ParseSingleExample_1/Squeeze_label"
  input: "Reshape_11/shape"
  attr {
    key: "T"
    value {
      type: DT_INT64
    }
  }
  attr {
    key: "Tshape"
    value {
      type: DT_INT32
    }
  }
  attr {
    key: "_output_shapes"
    value {
      list {
        shape {
        }
      }
    }
  }
}
node {
  name: "Reshape_12/shape"
  op: "Const"
  attr {
    key: "_output_shapes"
    value {
      list {
        shape {
          dim {
            size: 1
          }
        }
      }
    }
  }
  attr {
    key: "dtype"
    value {
      type: DT_INT32
    }
  }
  attr {
    key: "value"
    value {
      tensor {
        dtype: DT_INT32
        tensor_shape {
          dim {
            size: 1
          }
        }
        int_val: 40
      }
    }
  }
}
node {
  name: "Reshape_12"
  op: "Reshape"
  input: "ParseSingleExample_1/Squeeze_series/z"
  input: "Reshape_12/shape"
  attr {
    key: "T"
    value {
      type: DT_FLOAT
    }
  }
  attr {
    key: "Tshape"
    value {
      type: DT_INT32
    }
  }
  attr {
    key: "_output_shapes"
    value {
      list {
        shape {
          dim {
            size: 40
          }
        }
      }
    }
  }
}
node {
  name: "Reshape_13/shape"
  op: "Const"
  attr {
    key: "_output_shapes"
    value {
      list {
        shape {
          dim {
            size: 1
          }
        }
      }
    }
  }
  attr {
    key: "dtype"
    value {
      type: DT_INT32
    }
  }
  attr {
    key: "value"
    value {
      tensor {
        dtype: DT_INT32
        tensor_shape {
          dim {
            size: 1
          }
        }
        int_val: 40
      }
    }
  }
}
node {
  name: "Reshape_13"
  op: "Reshape"
  input: "ParseSingleExample_1/Squeeze_series/x"
  input: "Reshape_13/shape"
  attr {
    key: "T"
    value {
      type: DT_FLOAT
    }
  }
  attr {
    key: "Tshape"
    value {
      type: DT_INT32
    }
  }
  attr {
    key: "_output_shapes"
    value {
      list {
        shape {
          dim {
            size: 40
          }
        }
      }
    }
  }
}
node {
  name: "Reshape_14/shape"
  op: "Const"
  attr {
    key: "_output_shapes"
    value {
      list {
        shape {
          dim {
            size: 1
          }
        }
      }
    }
  }
  attr {
    key: "dtype"
    value {
      type: DT_INT32
    }
  }
  attr {
    key: "value"
    value {
      tensor {
        dtype: DT_INT32
        tensor_shape {
          dim {
            size: 1
          }
        }
        int_val: 40
      }
    }
  }
}
node {
  name: "Reshape_14"
  op: "Reshape"
  input: "ParseSingleExample_1/Squeeze_series/y"
  input: "Reshape_14/shape"
  attr {
    key: "T"
    value {
      type: DT_FLOAT
    }
  }
  attr {
    key: "Tshape"
    value {
      type: DT_INT32
    }
  }
  attr {
    key: "_output_shapes"
    value {
      list {
        shape {
          dim {
            size: 40
          }
        }
      }
    }
  }
}
node {
  name: "Reshape_15/shape"
  op: "Const"
  attr {
    key: "_output_shapes"
    value {
      list {
        shape {
          dim {
            size: 1
          }
        }
      }
    }
  }
  attr {
    key: "dtype"
    value {
      type: DT_INT32
    }
  }
  attr {
    key: "value"
    value {
      tensor {
        dtype: DT_INT32
        tensor_shape {
          dim {
            size: 1
          }
        }
        int_val: 120
      }
    }
  }
}
node {
  name: "Reshape_15"
  op: "Reshape"
  input: "Reshape_10"
  input: "Reshape_15/shape"
  attr {
    key: "T"
    value {
      type: DT_FLOAT
    }
  }
  attr {
    key: "Tshape"
    value {
      type: DT_INT32
    }
  }
  attr {
    key: "_output_shapes"
    value {
      list {
        shape {
          dim {
            size: 120
          }
        }
      }
    }
  }
}
node {
  name: "Reshape_16/shape"
  op: "Const"
  attr {
    key: "_output_shapes"
    value {
      list {
        shape {
          dim {
          }
        }
      }
    }
  }
  attr {
    key: "dtype"
    value {
      type: DT_INT32
    }
  }
  attr {
    key: "value"
    value {
      tensor {
        dtype: DT_INT32
        tensor_shape {
          dim {
          }
        }
      }
    }
  }
}
node {
  name: "Reshape_16"
  op: "Reshape"
  input: "Reshape_11"
  input: "Reshape_16/shape"
  attr {
    key: "T"
    value {
      type: DT_INT64
    }
  }
  attr {
    key: "Tshape"
    value {
      type: DT_INT32
    }
  }
  attr {
    key: "_output_shapes"
    value {
      list {
        shape {
        }
      }
    }
  }
}
node {
  name: "Reshape_17/shape"
  op: "Const"
  attr {
    key: "_output_shapes"
    value {
      list {
        shape {
          dim {
            size: 1
          }
        }
      }
    }
  }
  attr {
    key: "dtype"
    value {
      type: DT_INT32
    }
  }
  attr {
    key: "value"
    value {
      tensor {
        dtype: DT_INT32
        tensor_shape {
          dim {
            size: 1
          }
        }
        int_val: 40
      }
    }
  }
}
node {
  name: "Reshape_17"
  op: "Reshape"
  input: "Reshape_12"
  input: "Reshape_17/shape"
  attr {
    key: "T"
    value {
      type: DT_FLOAT
    }
  }
  attr {
    key: "Tshape"
    value {
      type: DT_INT32
    }
  }
  attr {
    key: "_output_shapes"
    value {
      list {
        shape {
          dim {
            size: 40
          }
        }
      }
    }
  }
}
node {
  name: "Reshape_18/shape"
  op: "Const"
  attr {
    key: "_output_shapes"
    value {
      list {
        shape {
          dim {
            size: 1
          }
        }
      }
    }
  }
  attr {
    key: "dtype"
    value {
      type: DT_INT32
    }
  }
  attr {
    key: "value"
    value {
      tensor {
        dtype: DT_INT32
        tensor_shape {
          dim {
            size: 1
          }
        }
        int_val: 40
      }
    }
  }
}
node {
  name: "Reshape_18"
  op: "Reshape"
  input: "Reshape_13"
  input: "Reshape_18/shape"
  attr {
    key: "T"
    value {
      type: DT_FLOAT
    }
  }
  attr {
    key: "Tshape"
    value {
      type: DT_INT32
    }
  }
  attr {
    key: "_output_shapes"
    value {
      list {
        shape {
          dim {
            size: 40
          }
        }
      }
    }
  }
}
node {
  name: "Reshape_19/shape"
  op: "Const"
  attr {
    key: "_output_shapes"
    value {
      list {
        shape {
          dim {
            size: 1
          }
        }
      }
    }
  }
  attr {
    key: "dtype"
    value {
      type: DT_INT32
    }
  }
  attr {
    key: "value"
    value {
      tensor {
        dtype: DT_INT32
        tensor_shape {
          dim {
            size: 1
          }
        }
        int_val: 40
      }
    }
  }
}
node {
  name: "Reshape_19"
  op: "Reshape"
  input: "Reshape_14"
  input: "Reshape_19/shape"
  attr {
    key: "T"
    value {
      type: DT_FLOAT
    }
  }
  attr {
    key: "Tshape"
    value {
      type: DT_INT32
    }
  }
  attr {
    key: "_output_shapes"
    value {
      list {
        shape {
          dim {
            size: 40
          }
        }
      }
    }
  }
}
node {
  name: "ToInt32_2"
  op: "Cast"
  input: "Reshape_16"
  attr {
    key: "DstT"
    value {
      type: DT_INT32
    }
  }
  attr {
    key: "SrcT"
    value {
      type: DT_INT64
    }
  }
  attr {
    key: "_output_shapes"
    value {
      list {
        shape {
        }
      }
    }
  }
}
node {
  name: "OneHotEncoding_1/ToInt64"
  op: "Cast"
  input: "ToInt32_2"
  attr {
    key: "DstT"
    value {
      type: DT_INT64
    }
  }
  attr {
    key: "SrcT"
    value {
      type: DT_INT32
    }
  }
  attr {
    key: "_output_shapes"
    value {
      list {
        shape {
        }
      }
    }
  }
}
node {
  name: "OneHotEncoding_1/one_hot/Const"
  op: "Const"
  attr {
    key: "_output_shapes"
    value {
      list {
        shape {
        }
      }
    }
  }
  attr {
    key: "dtype"
    value {
      type: DT_FLOAT
    }
  }
  attr {
    key: "value"
    value {
      tensor {
        dtype: DT_FLOAT
        tensor_shape {
        }
        float_val: 1.0
      }
    }
  }
}
node {
  name: "OneHotEncoding_1/one_hot/Const_1"
  op: "Const"
  attr {
    key: "_output_shapes"
    value {
      list {
        shape {
        }
      }
    }
  }
  attr {
    key: "dtype"
    value {
      type: DT_FLOAT
    }
  }
  attr {
    key: "value"
    value {
      tensor {
        dtype: DT_FLOAT
        tensor_shape {
        }
        float_val: 0.0
      }
    }
  }
}
node {
  name: "OneHotEncoding_1/one_hot/depth"
  op: "Const"
  attr {
    key: "_output_shapes"
    value {
      list {
        shape {
        }
      }
    }
  }
  attr {
    key: "dtype"
    value {
      type: DT_INT32
    }
  }
  attr {
    key: "value"
    value {
      tensor {
        dtype: DT_INT32
        tensor_shape {
        }
        int_val: 4
      }
    }
  }
}
node {
  name: "OneHotEncoding_1/one_hot/on_value"
  op: "Const"
  attr {
    key: "_output_shapes"
    value {
      list {
        shape {
        }
      }
    }
  }
  attr {
    key: "dtype"
    value {
      type: DT_FLOAT
    }
  }
  attr {
    key: "value"
    value {
      tensor {
        dtype: DT_FLOAT
        tensor_shape {
        }
        float_val: 1.0
      }
    }
  }
}
node {
  name: "OneHotEncoding_1/one_hot/off_value"
  op: "Const"
  attr {
    key: "_output_shapes"
    value {
      list {
        shape {
        }
      }
    }
  }
  attr {
    key: "dtype"
    value {
      type: DT_FLOAT
    }
  }
  attr {
    key: "value"
    value {
      tensor {
        dtype: DT_FLOAT
        tensor_shape {
        }
        float_val: 0.0
      }
    }
  }
}
node {
  name: "OneHotEncoding_1/one_hot"
  op: "OneHot"
  input: "OneHotEncoding_1/ToInt64"
  input: "OneHotEncoding_1/one_hot/depth"
  input: "OneHotEncoding_1/one_hot/on_value"
  input: "OneHotEncoding_1/one_hot/off_value"
  attr {
    key: "T"
    value {
      type: DT_FLOAT
    }
  }
  attr {
    key: "TI"
    value {
      type: DT_INT64
    }
  }
  attr {
    key: "_output_shapes"
    value {
      list {
        shape {
          dim {
            size: 4
          }
        }
      }
    }
  }
  attr {
    key: "axis"
    value {
      i: -1
    }
  }
}
node {
  name: "ToInt32_3"
  op: "Cast"
  input: "OneHotEncoding_1/one_hot"
  attr {
    key: "DstT"
    value {
      type: DT_INT32
    }
  }
  attr {
    key: "SrcT"
    value {
      type: DT_FLOAT
    }
  }
  attr {
    key: "_output_shapes"
    value {
      list {
        shape {
          dim {
            size: 4
          }
        }
      }
    }
  }
}
node {
  name: "batch_1/Const"
  op: "Const"
  attr {
    key: "_output_shapes"
    value {
      list {
        shape {
        }
      }
    }
  }
  attr {
    key: "dtype"
    value {
      type: DT_BOOL
    }
  }
  attr {
    key: "value"
    value {
      tensor {
        dtype: DT_BOOL
        tensor_shape {
        }
        bool_val: true
      }
    }
  }
}
node {
  name: "batch_1/fifo_queue"
  op: "FIFOQueueV2"
  attr {
    key: "_output_shapes"
    value {
      list {
        shape {
        }
      }
    }
  }
  attr {
    key: "capacity"
    value {
      i: 32
    }
  }
  attr {
    key: "component_types"
    value {
      list {
        type: DT_FLOAT
        type: DT_INT32
        type: DT_INT32
      }
    }
  }
  attr {
    key: "container"
    value {
      s: ""
    }
  }
  attr {
    key: "shapes"
    value {
      list {
        shape {
          dim {
            size: 120
          }
        }
        shape {
        }
        shape {
          dim {
            size: 4
          }
        }
      }
    }
  }
  attr {
    key: "shared_name"
    value {
      s: ""
    }
  }
}
node {
  name: "batch_1/fifo_queue_enqueue"
  op: "QueueEnqueueV2"
  input: "batch_1/fifo_queue"
  input: "Reshape_15"
  input: "ToInt32_2"
  input: "ToInt32_3"
  attr {
    key: "Tcomponents"
    value {
      list {
        type: DT_FLOAT
        type: DT_INT32
        type: DT_INT32
      }
    }
  }
  attr {
    key: "timeout_ms"
    value {
      i: -1
    }
  }
}
node {
  name: "batch_1/fifo_queue_Close"
  op: "QueueCloseV2"
  input: "batch_1/fifo_queue"
  attr {
    key: "cancel_pending_enqueues"
    value {
      b: false
    }
  }
}
node {
  name: "batch_1/fifo_queue_Close_1"
  op: "QueueCloseV2"
  input: "batch_1/fifo_queue"
  attr {
    key: "cancel_pending_enqueues"
    value {
      b: true
    }
  }
}
node {
  name: "batch_1/fifo_queue_Size"
  op: "QueueSizeV2"
  input: "batch_1/fifo_queue"
  attr {
    key: "_output_shapes"
    value {
      list {
        shape {
        }
      }
    }
  }
}
node {
  name: "batch_1/Cast"
  op: "Cast"
  input: "batch_1/fifo_queue_Size"
  attr {
    key: "DstT"
    value {
      type: DT_FLOAT
    }
  }
  attr {
    key: "SrcT"
    value {
      type: DT_INT32
    }
  }
  attr {
    key: "_output_shapes"
    value {
      list {
        shape {
        }
      }
    }
  }
}
node {
  name: "batch_1/mul/y"
  op: "Const"
  attr {
    key: "_output_shapes"
    value {
      list {
        shape {
        }
      }
    }
  }
  attr {
    key: "dtype"
    value {
      type: DT_FLOAT
    }
  }
  attr {
    key: "value"
    value {
      tensor {
        dtype: DT_FLOAT
        tensor_shape {
        }
        float_val: 0.03125
      }
    }
  }
}
node {
  name: "batch_1/mul"
  op: "Mul"
  input: "batch_1/Cast"
  input: "batch_1/mul/y"
  attr {
    key: "T"
    value {
      type: DT_FLOAT
    }
  }
  attr {
    key: "_output_shapes"
    value {
      list {
        shape {
        }
      }
    }
  }
}
node {
  name: "batch_1/fraction_of_32_full/tags"
  op: "Const"
  attr {
    key: "_output_shapes"
    value {
      list {
        shape {
        }
      }
    }
  }
  attr {
    key: "dtype"
    value {
      type: DT_STRING
    }
  }
  attr {
    key: "value"
    value {
      tensor {
        dtype: DT_STRING
        tensor_shape {
        }
        string_val: "batch_1/fraction_of_32_full"
      }
    }
  }
}
node {
  name: "batch_1/fraction_of_32_full"
  op: "ScalarSummary"
  input: "batch_1/fraction_of_32_full/tags"
  input: "batch_1/mul"
  attr {
    key: "T"
    value {
      type: DT_FLOAT
    }
  }
  attr {
    key: "_output_shapes"
    value {
      list {
        shape {
        }
      }
    }
  }
}
node {
  name: "batch_1/n"
  op: "Const"
  attr {
    key: "_output_shapes"
    value {
      list {
        shape {
        }
      }
    }
  }
  attr {
    key: "dtype"
    value {
      type: DT_INT32
    }
  }
  attr {
    key: "value"
    value {
      tensor {
        dtype: DT_INT32
        tensor_shape {
        }
        int_val: 35
      }
    }
  }
}
node {
  name: "batch_1"
  op: "QueueDequeueUpToV2"
  input: "batch_1/fifo_queue"
  input: "batch_1/n"
  attr {
    key: "_output_shapes"
    value {
      list {
        shape {
          dim {
            size: -1
          }
          dim {
            size: 120
          }
        }
        shape {
          dim {
            size: -1
          }
        }
        shape {
          dim {
            size: -1
          }
          dim {
            size: 4
          }
        }
      }
    }
  }
  attr {
    key: "component_types"
    value {
      list {
        type: DT_FLOAT
        type: DT_INT32
        type: DT_INT32
      }
    }
  }
  attr {
    key: "timeout_ms"
    value {
      i: -1
    }
  }
}
node {
  name: "Model/Reshaping_data/Reshape/shape"
  op: "Const"
  attr {
    key: "_output_shapes"
    value {
      list {
        shape {
          dim {
            size: 4
          }
        }
      }
    }
  }
  attr {
    key: "dtype"
    value {
      type: DT_INT32
    }
  }
  attr {
    key: "value"
    value {
      tensor {
        dtype: DT_INT32
        tensor_shape {
          dim {
            size: 4
          }
        }
        tensor_content: "\377\377\377\377x\000\000\000\001\000\000\000\001\000\000\000"
      }
    }
  }
}
node {
  name: "Model/Reshaping_data/Reshape"
  op: "Reshape"
  input: "batch"
  input: "Model/Reshaping_data/Reshape/shape"
  attr {
    key: "T"
    value {
      type: DT_FLOAT
    }
  }
  attr {
    key: "Tshape"
    value {
      type: DT_INT32
    }
  }
  attr {
    key: "_output_shapes"
    value {
      list {
        shape {
          dim {
            size: -1
          }
          dim {
            size: 120
          }
          dim {
            size: 1
          }
          dim {
            size: 1
          }
        }
      }
    }
  }
}
node {
  name: "Conv_Layer_1/Initializer/random_uniform/shape"
  op: "Const"
  attr {
    key: "_class"
    value {
      list {
        s: "loc:@Conv_Layer_1"
      }
    }
  }
  attr {
    key: "_output_shapes"
    value {
      list {
        shape {
          dim {
            size: 4
          }
        }
      }
    }
  }
  attr {
    key: "dtype"
    value {
      type: DT_INT32
    }
  }
  attr {
    key: "value"
    value {
      tensor {
        dtype: DT_INT32
        tensor_shape {
          dim {
            size: 4
          }
        }
        tensor_content: "\005\000\000\000\001\000\000\000\001\000\000\000\020\000\000\000"
      }
    }
  }
}
node {
  name: "Conv_Layer_1/Initializer/random_uniform/min"
  op: "Const"
  attr {
    key: "_class"
    value {
      list {
        s: "loc:@Conv_Layer_1"
      }
    }
  }
  attr {
    key: "_output_shapes"
    value {
      list {
        shape {
        }
      }
    }
  }
  attr {
    key: "dtype"
    value {
      type: DT_FLOAT
    }
  }
  attr {
    key: "value"
    value {
      tensor {
        dtype: DT_FLOAT
        tensor_shape {
        }
        float_val: -0.265684455633
      }
    }
  }
}
node {
  name: "Conv_Layer_1/Initializer/random_uniform/max"
  op: "Const"
  attr {
    key: "_class"
    value {
      list {
        s: "loc:@Conv_Layer_1"
      }
    }
  }
  attr {
    key: "_output_shapes"
    value {
      list {
        shape {
        }
      }
    }
  }
  attr {
    key: "dtype"
    value {
      type: DT_FLOAT
    }
  }
  attr {
    key: "value"
    value {
      tensor {
        dtype: DT_FLOAT
        tensor_shape {
        }
        float_val: 0.265684455633
      }
    }
  }
}
node {
  name: "Conv_Layer_1/Initializer/random_uniform/RandomUniform"
  op: "RandomUniform"
  input: "Conv_Layer_1/Initializer/random_uniform/shape"
  attr {
    key: "T"
    value {
      type: DT_INT32
    }
  }
  attr {
    key: "_class"
    value {
      list {
        s: "loc:@Conv_Layer_1"
      }
    }
  }
  attr {
    key: "_output_shapes"
    value {
      list {
        shape {
          dim {
            size: 5
          }
          dim {
            size: 1
          }
          dim {
            size: 1
          }
          dim {
            size: 16
          }
        }
      }
    }
  }
  attr {
    key: "dtype"
    value {
      type: DT_FLOAT
    }
  }
  attr {
    key: "seed"
    value {
      i: 31415
    }
  }
  attr {
    key: "seed2"
    value {
      i: 203
    }
  }
}
node {
  name: "Conv_Layer_1/Initializer/random_uniform/sub"
  op: "Sub"
  input: "Conv_Layer_1/Initializer/random_uniform/max"
  input: "Conv_Layer_1/Initializer/random_uniform/min"
  attr {
    key: "T"
    value {
      type: DT_FLOAT
    }
  }
  attr {
    key: "_class"
    value {
      list {
        s: "loc:@Conv_Layer_1"
      }
    }
  }
  attr {
    key: "_output_shapes"
    value {
      list {
        shape {
        }
      }
    }
  }
}
node {
  name: "Conv_Layer_1/Initializer/random_uniform/mul"
  op: "Mul"
  input: "Conv_Layer_1/Initializer/random_uniform/RandomUniform"
  input: "Conv_Layer_1/Initializer/random_uniform/sub"
  attr {
    key: "T"
    value {
      type: DT_FLOAT
    }
  }
  attr {
    key: "_class"
    value {
      list {
        s: "loc:@Conv_Layer_1"
      }
    }
  }
  attr {
    key: "_output_shapes"
    value {
      list {
        shape {
          dim {
            size: 5
          }
          dim {
            size: 1
          }
          dim {
            size: 1
          }
          dim {
            size: 16
          }
        }
      }
    }
  }
}
node {
  name: "Conv_Layer_1/Initializer/random_uniform"
  op: "Add"
  input: "Conv_Layer_1/Initializer/random_uniform/mul"
  input: "Conv_Layer_1/Initializer/random_uniform/min"
  attr {
    key: "T"
    value {
      type: DT_FLOAT
    }
  }
  attr {
    key: "_class"
    value {
      list {
        s: "loc:@Conv_Layer_1"
      }
    }
  }
  attr {
    key: "_output_shapes"
    value {
      list {
        shape {
          dim {
            size: 5
          }
          dim {
            size: 1
          }
          dim {
            size: 1
          }
          dim {
            size: 16
          }
        }
      }
    }
  }
}
node {
  name: "Conv_Layer_1"
  op: "VariableV2"
  attr {
    key: "_class"
    value {
      list {
        s: "loc:@Conv_Layer_1"
      }
    }
  }
  attr {
    key: "_output_shapes"
    value {
      list {
        shape {
          dim {
            size: 5
          }
          dim {
            size: 1
          }
          dim {
            size: 1
          }
          dim {
            size: 16
          }
        }
      }
    }
  }
  attr {
    key: "container"
    value {
      s: ""
    }
  }
  attr {
    key: "dtype"
    value {
      type: DT_FLOAT
    }
  }
  attr {
    key: "shape"
    value {
      shape {
        dim {
          size: 5
        }
        dim {
          size: 1
        }
        dim {
          size: 1
        }
        dim {
          size: 16
        }
      }
    }
  }
  attr {
    key: "shared_name"
    value {
      s: ""
    }
  }
}
node {
  name: "Conv_Layer_1/Assign"
  op: "Assign"
  input: "Conv_Layer_1"
  input: "Conv_Layer_1/Initializer/random_uniform"
  attr {
    key: "T"
    value {
      type: DT_FLOAT
    }
  }
  attr {
    key: "_class"
    value {
      list {
        s: "loc:@Conv_Layer_1"
      }
    }
  }
  attr {
    key: "_output_shapes"
    value {
      list {
        shape {
          dim {
            size: 5
          }
          dim {
            size: 1
          }
          dim {
            size: 1
          }
          dim {
            size: 16
          }
        }
      }
    }
  }
  attr {
    key: "use_locking"
    value {
      b: true
    }
  }
  attr {
    key: "validate_shape"
    value {
      b: true
    }
  }
}
node {
  name: "Conv_Layer_1/read"
  op: "Identity"
  input: "Conv_Layer_1"
  attr {
    key: "T"
    value {
      type: DT_FLOAT
    }
  }
  attr {
    key: "_class"
    value {
      list {
        s: "loc:@Conv_Layer_1"
      }
    }
  }
  attr {
    key: "_output_shapes"
    value {
      list {
        shape {
          dim {
            size: 5
          }
          dim {
            size: 1
          }
          dim {
            size: 1
          }
          dim {
            size: 16
          }
        }
      }
    }
  }
}
node {
  name: "bias_for_Conv_Layer_1/Initializer/Const"
  op: "Const"
  attr {
    key: "_class"
    value {
      list {
        s: "loc:@bias_for_Conv_Layer_1"
      }
    }
  }
  attr {
    key: "_output_shapes"
    value {
      list {
        shape {
          dim {
            size: 16
          }
        }
      }
    }
  }
  attr {
    key: "dtype"
    value {
      type: DT_FLOAT
    }
  }
  attr {
    key: "value"
    value {
      tensor {
        dtype: DT_FLOAT
        tensor_shape {
          dim {
            size: 16
          }
        }
        float_val: 0.10000000149
      }
    }
  }
}
node {
  name: "bias_for_Conv_Layer_1"
  op: "VariableV2"
  attr {
    key: "_class"
    value {
      list {
        s: "loc:@bias_for_Conv_Layer_1"
      }
    }
  }
  attr {
    key: "_output_shapes"
    value {
      list {
        shape {
          dim {
            size: 16
          }
        }
      }
    }
  }
  attr {
    key: "container"
    value {
      s: ""
    }
  }
  attr {
    key: "dtype"
    value {
      type: DT_FLOAT
    }
  }
  attr {
    key: "shape"
    value {
      shape {
        dim {
          size: 16
        }
      }
    }
  }
  attr {
    key: "shared_name"
    value {
      s: ""
    }
  }
}
node {
  name: "bias_for_Conv_Layer_1/Assign"
  op: "Assign"
  input: "bias_for_Conv_Layer_1"
  input: "bias_for_Conv_Layer_1/Initializer/Const"
  attr {
    key: "T"
    value {
      type: DT_FLOAT
    }
  }
  attr {
    key: "_class"
    value {
      list {
        s: "loc:@bias_for_Conv_Layer_1"
      }
    }
  }
  attr {
    key: "_output_shapes"
    value {
      list {
        shape {
          dim {
            size: 16
          }
        }
      }
    }
  }
  attr {
    key: "use_locking"
    value {
      b: true
    }
  }
  attr {
    key: "validate_shape"
    value {
      b: true
    }
  }
}
node {
  name: "bias_for_Conv_Layer_1/read"
  op: "Identity"
  input: "bias_for_Conv_Layer_1"
  attr {
    key: "T"
    value {
      type: DT_FLOAT
    }
  }
  attr {
    key: "_class"
    value {
      list {
        s: "loc:@bias_for_Conv_Layer_1"
      }
    }
  }
  attr {
    key: "_output_shapes"
    value {
      list {
        shape {
          dim {
            size: 16
          }
        }
      }
    }
  }
}
node {
  name: "Model/Conv1/Conv2D"
  op: "Conv2D"
  input: "Model/Reshaping_data/Reshape"
  input: "Conv_Layer_1/read"
  attr {
    key: "T"
    value {
      type: DT_FLOAT
    }
  }
  attr {
    key: "_output_shapes"
    value {
      list {
        shape {
          dim {
            size: -1
          }
          dim {
            size: 120
          }
          dim {
            size: 1
          }
          dim {
            size: 16
          }
        }
      }
    }
  }
  attr {
    key: "data_format"
    value {
      s: "NHWC"
    }
  }
  attr {
    key: "padding"
    value {
      s: "SAME"
    }
  }
  attr {
    key: "strides"
    value {
      list {
        i: 1
        i: 1
        i: 1
        i: 1
      }
    }
  }
  attr {
    key: "use_cudnn_on_gpu"
    value {
      b: true
    }
  }
}
node {
  name: "Model/Conv1/add"
  op: "Add"
  input: "Model/Conv1/Conv2D"
  input: "bias_for_Conv_Layer_1/read"
  attr {
    key: "T"
    value {
      type: DT_FLOAT
    }
  }
  attr {
    key: "_output_shapes"
    value {
      list {
        shape {
          dim {
            size: -1
          }
          dim {
            size: 120
          }
          dim {
            size: 1
          }
          dim {
            size: 16
          }
        }
      }
    }
  }
}
node {
  name: "a_conv1/BatchNorm/beta/Initializer/zeros"
  op: "Const"
  attr {
    key: "_class"
    value {
      list {
        s: "loc:@a_conv1/BatchNorm/beta"
      }
    }
  }
  attr {
    key: "_output_shapes"
    value {
      list {
        shape {
          dim {
            size: 16
          }
        }
      }
    }
  }
  attr {
    key: "dtype"
    value {
      type: DT_FLOAT
    }
  }
  attr {
    key: "value"
    value {
      tensor {
        dtype: DT_FLOAT
        tensor_shape {
          dim {
            size: 16
          }
        }
        float_val: 0.0
      }
    }
  }
}
node {
  name: "a_conv1/BatchNorm/beta"
  op: "VariableV2"
  attr {
    key: "_class"
    value {
      list {
        s: "loc:@a_conv1/BatchNorm/beta"
      }
    }
  }
  attr {
    key: "_output_shapes"
    value {
      list {
        shape {
          dim {
            size: 16
          }
        }
      }
    }
  }
  attr {
    key: "container"
    value {
      s: ""
    }
  }
  attr {
    key: "dtype"
    value {
      type: DT_FLOAT
    }
  }
  attr {
    key: "shape"
    value {
      shape {
        dim {
          size: 16
        }
      }
    }
  }
  attr {
    key: "shared_name"
    value {
      s: ""
    }
  }
}
node {
  name: "a_conv1/BatchNorm/beta/Assign"
  op: "Assign"
  input: "a_conv1/BatchNorm/beta"
  input: "a_conv1/BatchNorm/beta/Initializer/zeros"
  attr {
    key: "T"
    value {
      type: DT_FLOAT
    }
  }
  attr {
    key: "_class"
    value {
      list {
        s: "loc:@a_conv1/BatchNorm/beta"
      }
    }
  }
  attr {
    key: "_output_shapes"
    value {
      list {
        shape {
          dim {
            size: 16
          }
        }
      }
    }
  }
  attr {
    key: "use_locking"
    value {
      b: true
    }
  }
  attr {
    key: "validate_shape"
    value {
      b: true
    }
  }
}
node {
  name: "a_conv1/BatchNorm/beta/read"
  op: "Identity"
  input: "a_conv1/BatchNorm/beta"
  attr {
    key: "T"
    value {
      type: DT_FLOAT
    }
  }
  attr {
    key: "_class"
    value {
      list {
        s: "loc:@a_conv1/BatchNorm/beta"
      }
    }
  }
  attr {
    key: "_output_shapes"
    value {
      list {
        shape {
          dim {
            size: 16
          }
        }
      }
    }
  }
}
node {
  name: "a_conv1/BatchNorm/moving_mean/Initializer/zeros"
  op: "Const"
  attr {
    key: "_class"
    value {
      list {
        s: "loc:@a_conv1/BatchNorm/moving_mean"
      }
    }
  }
  attr {
    key: "_output_shapes"
    value {
      list {
        shape {
          dim {
            size: 16
          }
        }
      }
    }
  }
  attr {
    key: "dtype"
    value {
      type: DT_FLOAT
    }
  }
  attr {
    key: "value"
    value {
      tensor {
        dtype: DT_FLOAT
        tensor_shape {
          dim {
            size: 16
          }
        }
        float_val: 0.0
      }
    }
  }
}
node {
  name: "a_conv1/BatchNorm/moving_mean"
  op: "VariableV2"
  attr {
    key: "_class"
    value {
      list {
        s: "loc:@a_conv1/BatchNorm/moving_mean"
      }
    }
  }
  attr {
    key: "_output_shapes"
    value {
      list {
        shape {
          dim {
            size: 16
          }
        }
      }
    }
  }
  attr {
    key: "container"
    value {
      s: ""
    }
  }
  attr {
    key: "dtype"
    value {
      type: DT_FLOAT
    }
  }
  attr {
    key: "shape"
    value {
      shape {
        dim {
          size: 16
        }
      }
    }
  }
  attr {
    key: "shared_name"
    value {
      s: ""
    }
  }
}
node {
  name: "a_conv1/BatchNorm/moving_mean/Assign"
  op: "Assign"
  input: "a_conv1/BatchNorm/moving_mean"
  input: "a_conv1/BatchNorm/moving_mean/Initializer/zeros"
  attr {
    key: "T"
    value {
      type: DT_FLOAT
    }
  }
  attr {
    key: "_class"
    value {
      list {
        s: "loc:@a_conv1/BatchNorm/moving_mean"
      }
    }
  }
  attr {
    key: "_output_shapes"
    value {
      list {
        shape {
          dim {
            size: 16
          }
        }
      }
    }
  }
  attr {
    key: "use_locking"
    value {
      b: true
    }
  }
  attr {
    key: "validate_shape"
    value {
      b: true
    }
  }
}
node {
  name: "a_conv1/BatchNorm/moving_mean/read"
  op: "Identity"
  input: "a_conv1/BatchNorm/moving_mean"
  attr {
    key: "T"
    value {
      type: DT_FLOAT
    }
  }
  attr {
    key: "_class"
    value {
      list {
        s: "loc:@a_conv1/BatchNorm/moving_mean"
      }
    }
  }
  attr {
    key: "_output_shapes"
    value {
      list {
        shape {
          dim {
            size: 16
          }
        }
      }
    }
  }
}
node {
  name: "a_conv1/BatchNorm/moving_variance/Initializer/ones"
  op: "Const"
  attr {
    key: "_class"
    value {
      list {
        s: "loc:@a_conv1/BatchNorm/moving_variance"
      }
    }
  }
  attr {
    key: "_output_shapes"
    value {
      list {
        shape {
          dim {
            size: 16
          }
        }
      }
    }
  }
  attr {
    key: "dtype"
    value {
      type: DT_FLOAT
    }
  }
  attr {
    key: "value"
    value {
      tensor {
        dtype: DT_FLOAT
        tensor_shape {
          dim {
            size: 16
          }
        }
        float_val: 1.0
      }
    }
  }
}
node {
  name: "a_conv1/BatchNorm/moving_variance"
  op: "VariableV2"
  attr {
    key: "_class"
    value {
      list {
        s: "loc:@a_conv1/BatchNorm/moving_variance"
      }
    }
  }
  attr {
    key: "_output_shapes"
    value {
      list {
        shape {
          dim {
            size: 16
          }
        }
      }
    }
  }
  attr {
    key: "container"
    value {
      s: ""
    }
  }
  attr {
    key: "dtype"
    value {
      type: DT_FLOAT
    }
  }
  attr {
    key: "shape"
    value {
      shape {
        dim {
          size: 16
        }
      }
    }
  }
  attr {
    key: "shared_name"
    value {
      s: ""
    }
  }
}
node {
  name: "a_conv1/BatchNorm/moving_variance/Assign"
  op: "Assign"
  input: "a_conv1/BatchNorm/moving_variance"
  input: "a_conv1/BatchNorm/moving_variance/Initializer/ones"
  attr {
    key: "T"
    value {
      type: DT_FLOAT
    }
  }
  attr {
    key: "_class"
    value {
      list {
        s: "loc:@a_conv1/BatchNorm/moving_variance"
      }
    }
  }
  attr {
    key: "_output_shapes"
    value {
      list {
        shape {
          dim {
            size: 16
          }
        }
      }
    }
  }
  attr {
    key: "use_locking"
    value {
      b: true
    }
  }
  attr {
    key: "validate_shape"
    value {
      b: true
    }
  }
}
node {
  name: "a_conv1/BatchNorm/moving_variance/read"
  op: "Identity"
  input: "a_conv1/BatchNorm/moving_variance"
  attr {
    key: "T"
    value {
      type: DT_FLOAT
    }
  }
  attr {
    key: "_class"
    value {
      list {
        s: "loc:@a_conv1/BatchNorm/moving_variance"
      }
    }
  }
  attr {
    key: "_output_shapes"
    value {
      list {
        shape {
          dim {
            size: 16
          }
        }
      }
    }
  }
}
node {
  name: "Model/Batch_norm_conv1/a_conv1/BatchNorm/moments/Mean/reduction_indices"
  op: "Const"
  attr {
    key: "_output_shapes"
    value {
      list {
        shape {
          dim {
            size: 3
          }
        }
      }
    }
  }
  attr {
    key: "dtype"
    value {
      type: DT_INT32
    }
  }
  attr {
    key: "value"
    value {
      tensor {
        dtype: DT_INT32
        tensor_shape {
          dim {
            size: 3
          }
        }
        tensor_content: "\000\000\000\000\001\000\000\000\002\000\000\000"
      }
    }
  }
}
node {
  name: "Model/Batch_norm_conv1/a_conv1/BatchNorm/moments/Mean"
  op: "Mean"
  input: "Model/Conv1/add"
  input: "Model/Batch_norm_conv1/a_conv1/BatchNorm/moments/Mean/reduction_indices"
  attr {
    key: "T"
    value {
      type: DT_FLOAT
    }
  }
  attr {
    key: "Tidx"
    value {
      type: DT_INT32
    }
  }
  attr {
    key: "_output_shapes"
    value {
      list {
        shape {
          dim {
            size: 1
          }
          dim {
            size: 1
          }
          dim {
            size: 1
          }
          dim {
            size: 16
          }
        }
      }
    }
  }
  attr {
    key: "keep_dims"
    value {
      b: true
    }
  }
}
node {
  name: "Model/Batch_norm_conv1/a_conv1/BatchNorm/moments/StopGradient"
  op: "StopGradient"
  input: "Model/Batch_norm_conv1/a_conv1/BatchNorm/moments/Mean"
  attr {
    key: "T"
    value {
      type: DT_FLOAT
    }
  }
  attr {
    key: "_output_shapes"
    value {
      list {
        shape {
          dim {
            size: 1
          }
          dim {
            size: 1
          }
          dim {
            size: 1
          }
          dim {
            size: 16
          }
        }
      }
    }
  }
}
node {
  name: "Model/Batch_norm_conv1/a_conv1/BatchNorm/moments/Sub"
  op: "Sub"
  input: "Model/Conv1/add"
  input: "Model/Batch_norm_conv1/a_conv1/BatchNorm/moments/StopGradient"
  attr {
    key: "T"
    value {
      type: DT_FLOAT
    }
  }
  attr {
    key: "_output_shapes"
    value {
      list {
        shape {
          dim {
            size: -1
          }
          dim {
            size: 120
          }
          dim {
            size: 1
          }
          dim {
            size: 16
          }
        }
      }
    }
  }
}
node {
  name: "Model/Batch_norm_conv1/a_conv1/BatchNorm/moments/shifted_mean/reduction_indices"
  op: "Const"
  attr {
    key: "_output_shapes"
    value {
      list {
        shape {
          dim {
            size: 3
          }
        }
      }
    }
  }
  attr {
    key: "dtype"
    value {
      type: DT_INT32
    }
  }
  attr {
    key: "value"
    value {
      tensor {
        dtype: DT_INT32
        tensor_shape {
          dim {
            size: 3
          }
        }
        tensor_content: "\000\000\000\000\001\000\000\000\002\000\000\000"
      }
    }
  }
}
node {
  name: "Model/Batch_norm_conv1/a_conv1/BatchNorm/moments/shifted_mean"
  op: "Mean"
  input: "Model/Batch_norm_conv1/a_conv1/BatchNorm/moments/Sub"
  input: "Model/Batch_norm_conv1/a_conv1/BatchNorm/moments/shifted_mean/reduction_indices"
  attr {
    key: "T"
    value {
      type: DT_FLOAT
    }
  }
  attr {
    key: "Tidx"
    value {
      type: DT_INT32
    }
  }
  attr {
    key: "_output_shapes"
    value {
      list {
        shape {
          dim {
            size: 1
          }
          dim {
            size: 1
          }
          dim {
            size: 1
          }
          dim {
            size: 16
          }
        }
      }
    }
  }
  attr {
    key: "keep_dims"
    value {
      b: true
    }
  }
}
node {
  name: "Model/Batch_norm_conv1/a_conv1/BatchNorm/moments/SquaredDifference"
  op: "SquaredDifference"
  input: "Model/Conv1/add"
  input: "Model/Batch_norm_conv1/a_conv1/BatchNorm/moments/StopGradient"
  attr {
    key: "T"
    value {
      type: DT_FLOAT
    }
  }
  attr {
    key: "_output_shapes"
    value {
      list {
        shape {
          dim {
            size: -1
          }
          dim {
            size: 120
          }
          dim {
            size: 1
          }
          dim {
            size: 16
          }
        }
      }
    }
  }
}
node {
  name: "Model/Batch_norm_conv1/a_conv1/BatchNorm/moments/Mean_1/reduction_indices"
  op: "Const"
  attr {
    key: "_output_shapes"
    value {
      list {
        shape {
          dim {
            size: 3
          }
        }
      }
    }
  }
  attr {
    key: "dtype"
    value {
      type: DT_INT32
    }
  }
  attr {
    key: "value"
    value {
      tensor {
        dtype: DT_INT32
        tensor_shape {
          dim {
            size: 3
          }
        }
        tensor_content: "\000\000\000\000\001\000\000\000\002\000\000\000"
      }
    }
  }
}
node {
  name: "Model/Batch_norm_conv1/a_conv1/BatchNorm/moments/Mean_1"
  op: "Mean"
  input: "Model/Batch_norm_conv1/a_conv1/BatchNorm/moments/SquaredDifference"
  input: "Model/Batch_norm_conv1/a_conv1/BatchNorm/moments/Mean_1/reduction_indices"
  attr {
    key: "T"
    value {
      type: DT_FLOAT
    }
  }
  attr {
    key: "Tidx"
    value {
      type: DT_INT32
    }
  }
  attr {
    key: "_output_shapes"
    value {
      list {
        shape {
          dim {
            size: 1
          }
          dim {
            size: 1
          }
          dim {
            size: 1
          }
          dim {
            size: 16
          }
        }
      }
    }
  }
  attr {
    key: "keep_dims"
    value {
      b: true
    }
  }
}
node {
  name: "Model/Batch_norm_conv1/a_conv1/BatchNorm/moments/Square"
  op: "Square"
  input: "Model/Batch_norm_conv1/a_conv1/BatchNorm/moments/shifted_mean"
  attr {
    key: "T"
    value {
      type: DT_FLOAT
    }
  }
  attr {
    key: "_output_shapes"
    value {
      list {
        shape {
          dim {
            size: 1
          }
          dim {
            size: 1
          }
          dim {
            size: 1
          }
          dim {
            size: 16
          }
        }
      }
    }
  }
}
node {
  name: "Model/Batch_norm_conv1/a_conv1/BatchNorm/moments/variance"
  op: "Sub"
  input: "Model/Batch_norm_conv1/a_conv1/BatchNorm/moments/Mean_1"
  input: "Model/Batch_norm_conv1/a_conv1/BatchNorm/moments/Square"
  attr {
    key: "T"
    value {
      type: DT_FLOAT
    }
  }
  attr {
    key: "_output_shapes"
    value {
      list {
        shape {
          dim {
            size: 1
          }
          dim {
            size: 1
          }
          dim {
            size: 1
          }
          dim {
            size: 16
          }
        }
      }
    }
  }
}
node {
  name: "Model/Batch_norm_conv1/a_conv1/BatchNorm/moments/mean"
  op: "Add"
  input: "Model/Batch_norm_conv1/a_conv1/BatchNorm/moments/shifted_mean"
  input: "Model/Batch_norm_conv1/a_conv1/BatchNorm/moments/StopGradient"
  attr {
    key: "T"
    value {
      type: DT_FLOAT
    }
  }
  attr {
    key: "_output_shapes"
    value {
      list {
        shape {
          dim {
            size: 1
          }
          dim {
            size: 1
          }
          dim {
            size: 1
          }
          dim {
            size: 16
          }
        }
      }
    }
  }
}
node {
  name: "Model/Batch_norm_conv1/a_conv1/BatchNorm/moments/Squeeze"
  op: "Squeeze"
  input: "Model/Batch_norm_conv1/a_conv1/BatchNorm/moments/mean"
  attr {
    key: "T"
    value {
      type: DT_FLOAT
    }
  }
  attr {
    key: "_output_shapes"
    value {
      list {
        shape {
          dim {
            size: 16
          }
        }
      }
    }
  }
  attr {
    key: "squeeze_dims"
    value {
      list {
        i: 0
        i: 1
        i: 2
      }
    }
  }
}
node {
  name: "Model/Batch_norm_conv1/a_conv1/BatchNorm/moments/Squeeze_1"
  op: "Squeeze"
  input: "Model/Batch_norm_conv1/a_conv1/BatchNorm/moments/variance"
  attr {
    key: "T"
    value {
      type: DT_FLOAT
    }
  }
  attr {
    key: "_output_shapes"
    value {
      list {
        shape {
          dim {
            size: 16
          }
        }
      }
    }
  }
  attr {
    key: "squeeze_dims"
    value {
      list {
        i: 0
        i: 1
        i: 2
      }
    }
  }
}
node {
  name: "Model/Batch_norm_conv1/a_conv1/BatchNorm/AssignMovingAvg/decay"
  op: "Const"
  attr {
    key: "_class"
    value {
      list {
        s: "loc:@a_conv1/BatchNorm/moving_mean"
      }
    }
  }
  attr {
    key: "_output_shapes"
    value {
      list {
        shape {
        }
      }
    }
  }
  attr {
    key: "dtype"
    value {
      type: DT_FLOAT
    }
  }
  attr {
    key: "value"
    value {
      tensor {
        dtype: DT_FLOAT
        tensor_shape {
        }
        float_val: 0.0010000000475
      }
    }
  }
}
node {
  name: "Model/Batch_norm_conv1/a_conv1/BatchNorm/AssignMovingAvg/sub"
  op: "Sub"
  input: "a_conv1/BatchNorm/moving_mean/read"
  input: "Model/Batch_norm_conv1/a_conv1/BatchNorm/moments/Squeeze"
  attr {
    key: "T"
    value {
      type: DT_FLOAT
    }
  }
  attr {
    key: "_class"
    value {
      list {
        s: "loc:@a_conv1/BatchNorm/moving_mean"
      }
    }
  }
  attr {
    key: "_output_shapes"
    value {
      list {
        shape {
          dim {
            size: 16
          }
        }
      }
    }
  }
}
node {
  name: "Model/Batch_norm_conv1/a_conv1/BatchNorm/AssignMovingAvg/mul"
  op: "Mul"
  input: "Model/Batch_norm_conv1/a_conv1/BatchNorm/AssignMovingAvg/sub"
  input: "Model/Batch_norm_conv1/a_conv1/BatchNorm/AssignMovingAvg/decay"
  attr {
    key: "T"
    value {
      type: DT_FLOAT
    }
  }
  attr {
    key: "_class"
    value {
      list {
        s: "loc:@a_conv1/BatchNorm/moving_mean"
      }
    }
  }
  attr {
    key: "_output_shapes"
    value {
      list {
        shape {
          dim {
            size: 16
          }
        }
      }
    }
  }
}
node {
  name: "Model/Batch_norm_conv1/a_conv1/BatchNorm/AssignMovingAvg"
  op: "AssignSub"
  input: "a_conv1/BatchNorm/moving_mean"
  input: "Model/Batch_norm_conv1/a_conv1/BatchNorm/AssignMovingAvg/mul"
  attr {
    key: "T"
    value {
      type: DT_FLOAT
    }
  }
  attr {
    key: "_class"
    value {
      list {
        s: "loc:@a_conv1/BatchNorm/moving_mean"
      }
    }
  }
  attr {
    key: "_output_shapes"
    value {
      list {
        shape {
          dim {
            size: 16
          }
        }
      }
    }
  }
  attr {
    key: "use_locking"
    value {
      b: false
    }
  }
}
node {
  name: "Model/Batch_norm_conv1/a_conv1/BatchNorm/AssignMovingAvg_1/decay"
  op: "Const"
  attr {
    key: "_class"
    value {
      list {
        s: "loc:@a_conv1/BatchNorm/moving_variance"
      }
    }
  }
  attr {
    key: "_output_shapes"
    value {
      list {
        shape {
        }
      }
    }
  }
  attr {
    key: "dtype"
    value {
      type: DT_FLOAT
    }
  }
  attr {
    key: "value"
    value {
      tensor {
        dtype: DT_FLOAT
        tensor_shape {
        }
        float_val: 0.0010000000475
      }
    }
  }
}
node {
  name: "Model/Batch_norm_conv1/a_conv1/BatchNorm/AssignMovingAvg_1/sub"
  op: "Sub"
  input: "a_conv1/BatchNorm/moving_variance/read"
  input: "Model/Batch_norm_conv1/a_conv1/BatchNorm/moments/Squeeze_1"
  attr {
    key: "T"
    value {
      type: DT_FLOAT
    }
  }
  attr {
    key: "_class"
    value {
      list {
        s: "loc:@a_conv1/BatchNorm/moving_variance"
      }
    }
  }
  attr {
    key: "_output_shapes"
    value {
      list {
        shape {
          dim {
            size: 16
          }
        }
      }
    }
  }
}
node {
  name: "Model/Batch_norm_conv1/a_conv1/BatchNorm/AssignMovingAvg_1/mul"
  op: "Mul"
  input: "Model/Batch_norm_conv1/a_conv1/BatchNorm/AssignMovingAvg_1/sub"
  input: "Model/Batch_norm_conv1/a_conv1/BatchNorm/AssignMovingAvg_1/decay"
  attr {
    key: "T"
    value {
      type: DT_FLOAT
    }
  }
  attr {
    key: "_class"
    value {
      list {
        s: "loc:@a_conv1/BatchNorm/moving_variance"
      }
    }
  }
  attr {
    key: "_output_shapes"
    value {
      list {
        shape {
          dim {
            size: 16
          }
        }
      }
    }
  }
}
node {
  name: "Model/Batch_norm_conv1/a_conv1/BatchNorm/AssignMovingAvg_1"
  op: "AssignSub"
  input: "a_conv1/BatchNorm/moving_variance"
  input: "Model/Batch_norm_conv1/a_conv1/BatchNorm/AssignMovingAvg_1/mul"
  attr {
    key: "T"
    value {
      type: DT_FLOAT
    }
  }
  attr {
    key: "_class"
    value {
      list {
        s: "loc:@a_conv1/BatchNorm/moving_variance"
      }
    }
  }
  attr {
    key: "_output_shapes"
    value {
      list {
        shape {
          dim {
            size: 16
          }
        }
      }
    }
  }
  attr {
    key: "use_locking"
    value {
      b: false
    }
  }
}
node {
  name: "Model/Batch_norm_conv1/a_conv1/BatchNorm/Identity"
  op: "Identity"
  input: "Model/Batch_norm_conv1/a_conv1/BatchNorm/moments/Squeeze"
  input: "^Model/Batch_norm_conv1/a_conv1/BatchNorm/AssignMovingAvg"
  input: "^Model/Batch_norm_conv1/a_conv1/BatchNorm/AssignMovingAvg_1"
  attr {
    key: "T"
    value {
      type: DT_FLOAT
    }
  }
  attr {
    key: "_output_shapes"
    value {
      list {
        shape {
          dim {
            size: 16
          }
        }
      }
    }
  }
}
node {
  name: "Model/Batch_norm_conv1/a_conv1/BatchNorm/Identity_1"
  op: "Identity"
  input: "Model/Batch_norm_conv1/a_conv1/BatchNorm/moments/Squeeze_1"
  input: "^Model/Batch_norm_conv1/a_conv1/BatchNorm/AssignMovingAvg"
  input: "^Model/Batch_norm_conv1/a_conv1/BatchNorm/AssignMovingAvg_1"
  attr {
    key: "T"
    value {
      type: DT_FLOAT
    }
  }
  attr {
    key: "_output_shapes"
    value {
      list {
        shape {
          dim {
            size: 16
          }
        }
      }
    }
  }
}
node {
  name: "Model/Batch_norm_conv1/a_conv1/BatchNorm/batchnorm/add/y"
  op: "Const"
  attr {
    key: "_output_shapes"
    value {
      list {
        shape {
        }
      }
    }
  }
  attr {
    key: "dtype"
    value {
      type: DT_FLOAT
    }
  }
  attr {
    key: "value"
    value {
      tensor {
        dtype: DT_FLOAT
        tensor_shape {
        }
        float_val: 0.0010000000475
      }
    }
  }
}
node {
  name: "Model/Batch_norm_conv1/a_conv1/BatchNorm/batchnorm/add"
  op: "Add"
  input: "Model/Batch_norm_conv1/a_conv1/BatchNorm/Identity_1"
  input: "Model/Batch_norm_conv1/a_conv1/BatchNorm/batchnorm/add/y"
  attr {
    key: "T"
    value {
      type: DT_FLOAT
    }
  }
  attr {
    key: "_output_shapes"
    value {
      list {
        shape {
          dim {
            size: 16
          }
        }
      }
    }
  }
}
node {
  name: "Model/Batch_norm_conv1/a_conv1/BatchNorm/batchnorm/Rsqrt"
  op: "Rsqrt"
  input: "Model/Batch_norm_conv1/a_conv1/BatchNorm/batchnorm/add"
  attr {
    key: "T"
    value {
      type: DT_FLOAT
    }
  }
  attr {
    key: "_output_shapes"
    value {
      list {
        shape {
          dim {
            size: 16
          }
        }
      }
    }
  }
}
node {
  name: "Model/Batch_norm_conv1/a_conv1/BatchNorm/batchnorm/mul"
  op: "Mul"
  input: "Model/Conv1/add"
  input: "Model/Batch_norm_conv1/a_conv1/BatchNorm/batchnorm/Rsqrt"
  attr {
    key: "T"
    value {
      type: DT_FLOAT
    }
  }
  attr {
    key: "_output_shapes"
    value {
      list {
        shape {
          dim {
            size: -1
          }
          dim {
            size: 120
          }
          dim {
            size: 1
          }
          dim {
            size: 16
          }
        }
      }
    }
  }
}
node {
  name: "Model/Batch_norm_conv1/a_conv1/BatchNorm/batchnorm/mul_1"
  op: "Mul"
  input: "Model/Batch_norm_conv1/a_conv1/BatchNorm/Identity"
  input: "Model/Batch_norm_conv1/a_conv1/BatchNorm/batchnorm/Rsqrt"
  attr {
    key: "T"
    value {
      type: DT_FLOAT
    }
  }
  attr {
    key: "_output_shapes"
    value {
      list {
        shape {
          dim {
            size: 16
          }
        }
      }
    }
  }
}
node {
  name: "Model/Batch_norm_conv1/a_conv1/BatchNorm/batchnorm/sub"
  op: "Sub"
  input: "a_conv1/BatchNorm/beta/read"
  input: "Model/Batch_norm_conv1/a_conv1/BatchNorm/batchnorm/mul_1"
  attr {
    key: "T"
    value {
      type: DT_FLOAT
    }
  }
  attr {
    key: "_output_shapes"
    value {
      list {
        shape {
          dim {
            size: 16
          }
        }
      }
    }
  }
}
node {
  name: "Model/Batch_norm_conv1/a_conv1/BatchNorm/batchnorm/add_1"
  op: "Add"
  input: "Model/Batch_norm_conv1/a_conv1/BatchNorm/batchnorm/mul"
  input: "Model/Batch_norm_conv1/a_conv1/BatchNorm/batchnorm/sub"
  attr {
    key: "T"
    value {
      type: DT_FLOAT
    }
  }
  attr {
    key: "_output_shapes"
    value {
      list {
        shape {
          dim {
            size: -1
          }
          dim {
            size: 120
          }
          dim {
            size: 1
          }
          dim {
            size: 16
          }
        }
      }
    }
  }
}
node {
  name: "Model/Batch_norm_conv1/Relu"
  op: "Relu"
  input: "Model/Batch_norm_conv1/a_conv1/BatchNorm/batchnorm/add_1"
  attr {
    key: "T"
    value {
      type: DT_FLOAT
    }
  }
  attr {
    key: "_output_shapes"
    value {
      list {
        shape {
          dim {
            size: -1
          }
          dim {
            size: 120
          }
          dim {
            size: 1
          }
          dim {
            size: 16
          }
        }
      }
    }
  }
}
node {
  name: "Conv_Layer_2/Initializer/random_uniform/shape"
  op: "Const"
  attr {
    key: "_class"
    value {
      list {
        s: "loc:@Conv_Layer_2"
      }
    }
  }
  attr {
    key: "_output_shapes"
    value {
      list {
        shape {
          dim {
            size: 4
          }
        }
      }
    }
  }
  attr {
    key: "dtype"
    value {
      type: DT_INT32
    }
  }
  attr {
    key: "value"
    value {
      tensor {
        dtype: DT_INT32
        tensor_shape {
          dim {
            size: 4
          }
        }
        tensor_content: "\004\000\000\000\001\000\000\000\020\000\000\000\016\000\000\000"
      }
    }
  }
}
node {
  name: "Conv_Layer_2/Initializer/random_uniform/min"
  op: "Const"
  attr {
    key: "_class"
    value {
      list {
        s: "loc:@Conv_Layer_2"
      }
    }
  }
  attr {
    key: "_output_shapes"
    value {
      list {
        shape {
        }
      }
    }
  }
  attr {
    key: "dtype"
    value {
      type: DT_FLOAT
    }
  }
  attr {
    key: "value"
    value {
      tensor {
        dtype: DT_FLOAT
        tensor_shape {
        }
        float_val: -0.223606795073
      }
    }
  }
}
node {
  name: "Conv_Layer_2/Initializer/random_uniform/max"
  op: "Const"
  attr {
    key: "_class"
    value {
      list {
        s: "loc:@Conv_Layer_2"
      }
    }
  }
  attr {
    key: "_output_shapes"
    value {
      list {
        shape {
        }
      }
    }
  }
  attr {
    key: "dtype"
    value {
      type: DT_FLOAT
    }
  }
  attr {
    key: "value"
    value {
      tensor {
        dtype: DT_FLOAT
        tensor_shape {
        }
        float_val: 0.223606795073
      }
    }
  }
}
node {
  name: "Conv_Layer_2/Initializer/random_uniform/RandomUniform"
  op: "RandomUniform"
  input: "Conv_Layer_2/Initializer/random_uniform/shape"
  attr {
    key: "T"
    value {
      type: DT_INT32
    }
  }
  attr {
    key: "_class"
    value {
      list {
        s: "loc:@Conv_Layer_2"
      }
    }
  }
  attr {
    key: "_output_shapes"
    value {
      list {
        shape {
          dim {
            size: 4
          }
          dim {
            size: 1
          }
          dim {
            size: 16
          }
          dim {
            size: 14
          }
        }
      }
    }
  }
  attr {
    key: "dtype"
    value {
      type: DT_FLOAT
    }
  }
  attr {
    key: "seed"
    value {
      i: 31415
    }
  }
  attr {
    key: "seed2"
    value {
      i: 263
    }
  }
}
node {
  name: "Conv_Layer_2/Initializer/random_uniform/sub"
  op: "Sub"
  input: "Conv_Layer_2/Initializer/random_uniform/max"
  input: "Conv_Layer_2/Initializer/random_uniform/min"
  attr {
    key: "T"
    value {
      type: DT_FLOAT
    }
  }
  attr {
    key: "_class"
    value {
      list {
        s: "loc:@Conv_Layer_2"
      }
    }
  }
  attr {
    key: "_output_shapes"
    value {
      list {
        shape {
        }
      }
    }
  }
}
node {
  name: "Conv_Layer_2/Initializer/random_uniform/mul"
  op: "Mul"
  input: "Conv_Layer_2/Initializer/random_uniform/RandomUniform"
  input: "Conv_Layer_2/Initializer/random_uniform/sub"
  attr {
    key: "T"
    value {
      type: DT_FLOAT
    }
  }
  attr {
    key: "_class"
    value {
      list {
        s: "loc:@Conv_Layer_2"
      }
    }
  }
  attr {
    key: "_output_shapes"
    value {
      list {
        shape {
          dim {
            size: 4
          }
          dim {
            size: 1
          }
          dim {
            size: 16
          }
          dim {
            size: 14
          }
        }
      }
    }
  }
}
node {
  name: "Conv_Layer_2/Initializer/random_uniform"
  op: "Add"
  input: "Conv_Layer_2/Initializer/random_uniform/mul"
  input: "Conv_Layer_2/Initializer/random_uniform/min"
  attr {
    key: "T"
    value {
      type: DT_FLOAT
    }
  }
  attr {
    key: "_class"
    value {
      list {
        s: "loc:@Conv_Layer_2"
      }
    }
  }
  attr {
    key: "_output_shapes"
    value {
      list {
        shape {
          dim {
            size: 4
          }
          dim {
            size: 1
          }
          dim {
            size: 16
          }
          dim {
            size: 14
          }
        }
      }
    }
  }
}
node {
  name: "Conv_Layer_2"
  op: "VariableV2"
  attr {
    key: "_class"
    value {
      list {
        s: "loc:@Conv_Layer_2"
      }
    }
  }
  attr {
    key: "_output_shapes"
    value {
      list {
        shape {
          dim {
            size: 4
          }
          dim {
            size: 1
          }
          dim {
            size: 16
          }
          dim {
            size: 14
          }
        }
      }
    }
  }
  attr {
    key: "container"
    value {
      s: ""
    }
  }
  attr {
    key: "dtype"
    value {
      type: DT_FLOAT
    }
  }
  attr {
    key: "shape"
    value {
      shape {
        dim {
          size: 4
        }
        dim {
          size: 1
        }
        dim {
          size: 16
        }
        dim {
          size: 14
        }
      }
    }
  }
  attr {
    key: "shared_name"
    value {
      s: ""
    }
  }
}
node {
  name: "Conv_Layer_2/Assign"
  op: "Assign"
  input: "Conv_Layer_2"
  input: "Conv_Layer_2/Initializer/random_uniform"
  attr {
    key: "T"
    value {
      type: DT_FLOAT
    }
  }
  attr {
    key: "_class"
    value {
      list {
        s: "loc:@Conv_Layer_2"
      }
    }
  }
  attr {
    key: "_output_shapes"
    value {
      list {
        shape {
          dim {
            size: 4
          }
          dim {
            size: 1
          }
          dim {
            size: 16
          }
          dim {
            size: 14
          }
        }
      }
    }
  }
  attr {
    key: "use_locking"
    value {
      b: true
    }
  }
  attr {
    key: "validate_shape"
    value {
      b: true
    }
  }
}
node {
  name: "Conv_Layer_2/read"
  op: "Identity"
  input: "Conv_Layer_2"
  attr {
    key: "T"
    value {
      type: DT_FLOAT
    }
  }
  attr {
    key: "_class"
    value {
      list {
        s: "loc:@Conv_Layer_2"
      }
    }
  }
  attr {
    key: "_output_shapes"
    value {
      list {
        shape {
          dim {
            size: 4
          }
          dim {
            size: 1
          }
          dim {
            size: 16
          }
          dim {
            size: 14
          }
        }
      }
    }
  }
}
node {
  name: "bias_for_Conv_Layer_2/Initializer/Const"
  op: "Const"
  attr {
    key: "_class"
    value {
      list {
        s: "loc:@bias_for_Conv_Layer_2"
      }
    }
  }
  attr {
    key: "_output_shapes"
    value {
      list {
        shape {
          dim {
            size: 14
          }
        }
      }
    }
  }
  attr {
    key: "dtype"
    value {
      type: DT_FLOAT
    }
  }
  attr {
    key: "value"
    value {
      tensor {
        dtype: DT_FLOAT
        tensor_shape {
          dim {
            size: 14
          }
        }
        float_val: 0.10000000149
      }
    }
  }
}
node {
  name: "bias_for_Conv_Layer_2"
  op: "VariableV2"
  attr {
    key: "_class"
    value {
      list {
        s: "loc:@bias_for_Conv_Layer_2"
      }
    }
  }
  attr {
    key: "_output_shapes"
    value {
      list {
        shape {
          dim {
            size: 14
          }
        }
      }
    }
  }
  attr {
    key: "container"
    value {
      s: ""
    }
  }
  attr {
    key: "dtype"
    value {
      type: DT_FLOAT
    }
  }
  attr {
    key: "shape"
    value {
      shape {
        dim {
          size: 14
        }
      }
    }
  }
  attr {
    key: "shared_name"
    value {
      s: ""
    }
  }
}
node {
  name: "bias_for_Conv_Layer_2/Assign"
  op: "Assign"
  input: "bias_for_Conv_Layer_2"
  input: "bias_for_Conv_Layer_2/Initializer/Const"
  attr {
    key: "T"
    value {
      type: DT_FLOAT
    }
  }
  attr {
    key: "_class"
    value {
      list {
        s: "loc:@bias_for_Conv_Layer_2"
      }
    }
  }
  attr {
    key: "_output_shapes"
    value {
      list {
        shape {
          dim {
            size: 14
          }
        }
      }
    }
  }
  attr {
    key: "use_locking"
    value {
      b: true
    }
  }
  attr {
    key: "validate_shape"
    value {
      b: true
    }
  }
}
node {
  name: "bias_for_Conv_Layer_2/read"
  op: "Identity"
  input: "bias_for_Conv_Layer_2"
  attr {
    key: "T"
    value {
      type: DT_FLOAT
    }
  }
  attr {
    key: "_class"
    value {
      list {
        s: "loc:@bias_for_Conv_Layer_2"
      }
    }
  }
  attr {
    key: "_output_shapes"
    value {
      list {
        shape {
          dim {
            size: 14
          }
        }
      }
    }
  }
}
node {
  name: "Model/Conv2/Conv2D"
  op: "Conv2D"
  input: "Model/Batch_norm_conv1/Relu"
  input: "Conv_Layer_2/read"
  attr {
    key: "T"
    value {
      type: DT_FLOAT
    }
  }
  attr {
    key: "_output_shapes"
    value {
      list {
        shape {
          dim {
            size: -1
          }
          dim {
            size: 120
          }
          dim {
            size: 1
          }
          dim {
            size: 14
          }
        }
      }
    }
  }
  attr {
    key: "data_format"
    value {
      s: "NHWC"
    }
  }
  attr {
    key: "padding"
    value {
      s: "SAME"
    }
  }
  attr {
    key: "strides"
    value {
      list {
        i: 1
        i: 1
        i: 1
        i: 1
      }
    }
  }
  attr {
    key: "use_cudnn_on_gpu"
    value {
      b: true
    }
  }
}
node {
  name: "Model/Conv2/add"
  op: "Add"
  input: "Model/Conv2/Conv2D"
  input: "bias_for_Conv_Layer_2/read"
  attr {
    key: "T"
    value {
      type: DT_FLOAT
    }
  }
  attr {
    key: "_output_shapes"
    value {
      list {
        shape {
          dim {
            size: -1
          }
          dim {
            size: 120
          }
          dim {
            size: 1
          }
          dim {
            size: 14
          }
        }
      }
    }
  }
}
node {
  name: "a_conv2/BatchNorm/beta/Initializer/zeros"
  op: "Const"
  attr {
    key: "_class"
    value {
      list {
        s: "loc:@a_conv2/BatchNorm/beta"
      }
    }
  }
  attr {
    key: "_output_shapes"
    value {
      list {
        shape {
          dim {
            size: 14
          }
        }
      }
    }
  }
  attr {
    key: "dtype"
    value {
      type: DT_FLOAT
    }
  }
  attr {
    key: "value"
    value {
      tensor {
        dtype: DT_FLOAT
        tensor_shape {
          dim {
            size: 14
          }
        }
        float_val: 0.0
      }
    }
  }
}
node {
  name: "a_conv2/BatchNorm/beta"
  op: "VariableV2"
  attr {
    key: "_class"
    value {
      list {
        s: "loc:@a_conv2/BatchNorm/beta"
      }
    }
  }
  attr {
    key: "_output_shapes"
    value {
      list {
        shape {
          dim {
            size: 14
          }
        }
      }
    }
  }
  attr {
    key: "container"
    value {
      s: ""
    }
  }
  attr {
    key: "dtype"
    value {
      type: DT_FLOAT
    }
  }
  attr {
    key: "shape"
    value {
      shape {
        dim {
          size: 14
        }
      }
    }
  }
  attr {
    key: "shared_name"
    value {
      s: ""
    }
  }
}
node {
  name: "a_conv2/BatchNorm/beta/Assign"
  op: "Assign"
  input: "a_conv2/BatchNorm/beta"
  input: "a_conv2/BatchNorm/beta/Initializer/zeros"
  attr {
    key: "T"
    value {
      type: DT_FLOAT
    }
  }
  attr {
    key: "_class"
    value {
      list {
        s: "loc:@a_conv2/BatchNorm/beta"
      }
    }
  }
  attr {
    key: "_output_shapes"
    value {
      list {
        shape {
          dim {
            size: 14
          }
        }
      }
    }
  }
  attr {
    key: "use_locking"
    value {
      b: true
    }
  }
  attr {
    key: "validate_shape"
    value {
      b: true
    }
  }
}
node {
  name: "a_conv2/BatchNorm/beta/read"
  op: "Identity"
  input: "a_conv2/BatchNorm/beta"
  attr {
    key: "T"
    value {
      type: DT_FLOAT
    }
  }
  attr {
    key: "_class"
    value {
      list {
        s: "loc:@a_conv2/BatchNorm/beta"
      }
    }
  }
  attr {
    key: "_output_shapes"
    value {
      list {
        shape {
          dim {
            size: 14
          }
        }
      }
    }
  }
}
node {
  name: "a_conv2/BatchNorm/moving_mean/Initializer/zeros"
  op: "Const"
  attr {
    key: "_class"
    value {
      list {
        s: "loc:@a_conv2/BatchNorm/moving_mean"
      }
    }
  }
  attr {
    key: "_output_shapes"
    value {
      list {
        shape {
          dim {
            size: 14
          }
        }
      }
    }
  }
  attr {
    key: "dtype"
    value {
      type: DT_FLOAT
    }
  }
  attr {
    key: "value"
    value {
      tensor {
        dtype: DT_FLOAT
        tensor_shape {
          dim {
            size: 14
          }
        }
        float_val: 0.0
      }
    }
  }
}
node {
  name: "a_conv2/BatchNorm/moving_mean"
  op: "VariableV2"
  attr {
    key: "_class"
    value {
      list {
        s: "loc:@a_conv2/BatchNorm/moving_mean"
      }
    }
  }
  attr {
    key: "_output_shapes"
    value {
      list {
        shape {
          dim {
            size: 14
          }
        }
      }
    }
  }
  attr {
    key: "container"
    value {
      s: ""
    }
  }
  attr {
    key: "dtype"
    value {
      type: DT_FLOAT
    }
  }
  attr {
    key: "shape"
    value {
      shape {
        dim {
          size: 14
        }
      }
    }
  }
  attr {
    key: "shared_name"
    value {
      s: ""
    }
  }
}
node {
  name: "a_conv2/BatchNorm/moving_mean/Assign"
  op: "Assign"
  input: "a_conv2/BatchNorm/moving_mean"
  input: "a_conv2/BatchNorm/moving_mean/Initializer/zeros"
  attr {
    key: "T"
    value {
      type: DT_FLOAT
    }
  }
  attr {
    key: "_class"
    value {
      list {
        s: "loc:@a_conv2/BatchNorm/moving_mean"
      }
    }
  }
  attr {
    key: "_output_shapes"
    value {
      list {
        shape {
          dim {
            size: 14
          }
        }
      }
    }
  }
  attr {
    key: "use_locking"
    value {
      b: true
    }
  }
  attr {
    key: "validate_shape"
    value {
      b: true
    }
  }
}
node {
  name: "a_conv2/BatchNorm/moving_mean/read"
  op: "Identity"
  input: "a_conv2/BatchNorm/moving_mean"
  attr {
    key: "T"
    value {
      type: DT_FLOAT
    }
  }
  attr {
    key: "_class"
    value {
      list {
        s: "loc:@a_conv2/BatchNorm/moving_mean"
      }
    }
  }
  attr {
    key: "_output_shapes"
    value {
      list {
        shape {
          dim {
            size: 14
          }
        }
      }
    }
  }
}
node {
  name: "a_conv2/BatchNorm/moving_variance/Initializer/ones"
  op: "Const"
  attr {
    key: "_class"
    value {
      list {
        s: "loc:@a_conv2/BatchNorm/moving_variance"
      }
    }
  }
  attr {
    key: "_output_shapes"
    value {
      list {
        shape {
          dim {
            size: 14
          }
        }
      }
    }
  }
  attr {
    key: "dtype"
    value {
      type: DT_FLOAT
    }
  }
  attr {
    key: "value"
    value {
      tensor {
        dtype: DT_FLOAT
        tensor_shape {
          dim {
            size: 14
          }
        }
        float_val: 1.0
      }
    }
  }
}
node {
  name: "a_conv2/BatchNorm/moving_variance"
  op: "VariableV2"
  attr {
    key: "_class"
    value {
      list {
        s: "loc:@a_conv2/BatchNorm/moving_variance"
      }
    }
  }
  attr {
    key: "_output_shapes"
    value {
      list {
        shape {
          dim {
            size: 14
          }
        }
      }
    }
  }
  attr {
    key: "container"
    value {
      s: ""
    }
  }
  attr {
    key: "dtype"
    value {
      type: DT_FLOAT
    }
  }
  attr {
    key: "shape"
    value {
      shape {
        dim {
          size: 14
        }
      }
    }
  }
  attr {
    key: "shared_name"
    value {
      s: ""
    }
  }
}
node {
  name: "a_conv2/BatchNorm/moving_variance/Assign"
  op: "Assign"
  input: "a_conv2/BatchNorm/moving_variance"
  input: "a_conv2/BatchNorm/moving_variance/Initializer/ones"
  attr {
    key: "T"
    value {
      type: DT_FLOAT
    }
  }
  attr {
    key: "_class"
    value {
      list {
        s: "loc:@a_conv2/BatchNorm/moving_variance"
      }
    }
  }
  attr {
    key: "_output_shapes"
    value {
      list {
        shape {
          dim {
            size: 14
          }
        }
      }
    }
  }
  attr {
    key: "use_locking"
    value {
      b: true
    }
  }
  attr {
    key: "validate_shape"
    value {
      b: true
    }
  }
}
node {
  name: "a_conv2/BatchNorm/moving_variance/read"
  op: "Identity"
  input: "a_conv2/BatchNorm/moving_variance"
  attr {
    key: "T"
    value {
      type: DT_FLOAT
    }
  }
  attr {
    key: "_class"
    value {
      list {
        s: "loc:@a_conv2/BatchNorm/moving_variance"
      }
    }
  }
  attr {
    key: "_output_shapes"
    value {
      list {
        shape {
          dim {
            size: 14
          }
        }
      }
    }
  }
}
node {
  name: "Model/Batch_norm_conv2/a_conv2/BatchNorm/moments/Mean/reduction_indices"
  op: "Const"
  attr {
    key: "_output_shapes"
    value {
      list {
        shape {
          dim {
            size: 3
          }
        }
      }
    }
  }
  attr {
    key: "dtype"
    value {
      type: DT_INT32
    }
  }
  attr {
    key: "value"
    value {
      tensor {
        dtype: DT_INT32
        tensor_shape {
          dim {
            size: 3
          }
        }
        tensor_content: "\000\000\000\000\001\000\000\000\002\000\000\000"
      }
    }
  }
}
node {
  name: "Model/Batch_norm_conv2/a_conv2/BatchNorm/moments/Mean"
  op: "Mean"
  input: "Model/Conv2/add"
  input: "Model/Batch_norm_conv2/a_conv2/BatchNorm/moments/Mean/reduction_indices"
  attr {
    key: "T"
    value {
      type: DT_FLOAT
    }
  }
  attr {
    key: "Tidx"
    value {
      type: DT_INT32
    }
  }
  attr {
    key: "_output_shapes"
    value {
      list {
        shape {
          dim {
            size: 1
          }
          dim {
            size: 1
          }
          dim {
            size: 1
          }
          dim {
            size: 14
          }
        }
      }
    }
  }
  attr {
    key: "keep_dims"
    value {
      b: true
    }
  }
}
node {
  name: "Model/Batch_norm_conv2/a_conv2/BatchNorm/moments/StopGradient"
  op: "StopGradient"
  input: "Model/Batch_norm_conv2/a_conv2/BatchNorm/moments/Mean"
  attr {
    key: "T"
    value {
      type: DT_FLOAT
    }
  }
  attr {
    key: "_output_shapes"
    value {
      list {
        shape {
          dim {
            size: 1
          }
          dim {
            size: 1
          }
          dim {
            size: 1
          }
          dim {
            size: 14
          }
        }
      }
    }
  }
}
node {
  name: "Model/Batch_norm_conv2/a_conv2/BatchNorm/moments/Sub"
  op: "Sub"
  input: "Model/Conv2/add"
  input: "Model/Batch_norm_conv2/a_conv2/BatchNorm/moments/StopGradient"
  attr {
    key: "T"
    value {
      type: DT_FLOAT
    }
  }
  attr {
    key: "_output_shapes"
    value {
      list {
        shape {
          dim {
            size: -1
          }
          dim {
            size: 120
          }
          dim {
            size: 1
          }
          dim {
            size: 14
          }
        }
      }
    }
  }
}
node {
  name: "Model/Batch_norm_conv2/a_conv2/BatchNorm/moments/shifted_mean/reduction_indices"
  op: "Const"
  attr {
    key: "_output_shapes"
    value {
      list {
        shape {
          dim {
            size: 3
          }
        }
      }
    }
  }
  attr {
    key: "dtype"
    value {
      type: DT_INT32
    }
  }
  attr {
    key: "value"
    value {
      tensor {
        dtype: DT_INT32
        tensor_shape {
          dim {
            size: 3
          }
        }
        tensor_content: "\000\000\000\000\001\000\000\000\002\000\000\000"
      }
    }
  }
}
node {
  name: "Model/Batch_norm_conv2/a_conv2/BatchNorm/moments/shifted_mean"
  op: "Mean"
  input: "Model/Batch_norm_conv2/a_conv2/BatchNorm/moments/Sub"
  input: "Model/Batch_norm_conv2/a_conv2/BatchNorm/moments/shifted_mean/reduction_indices"
  attr {
    key: "T"
    value {
      type: DT_FLOAT
    }
  }
  attr {
    key: "Tidx"
    value {
      type: DT_INT32
    }
  }
  attr {
    key: "_output_shapes"
    value {
      list {
        shape {
          dim {
            size: 1
          }
          dim {
            size: 1
          }
          dim {
            size: 1
          }
          dim {
            size: 14
          }
        }
      }
    }
  }
  attr {
    key: "keep_dims"
    value {
      b: true
    }
  }
}
node {
  name: "Model/Batch_norm_conv2/a_conv2/BatchNorm/moments/SquaredDifference"
  op: "SquaredDifference"
  input: "Model/Conv2/add"
  input: "Model/Batch_norm_conv2/a_conv2/BatchNorm/moments/StopGradient"
  attr {
    key: "T"
    value {
      type: DT_FLOAT
    }
  }
  attr {
    key: "_output_shapes"
    value {
      list {
        shape {
          dim {
            size: -1
          }
          dim {
            size: 120
          }
          dim {
            size: 1
          }
          dim {
            size: 14
          }
        }
      }
    }
  }
}
node {
  name: "Model/Batch_norm_conv2/a_conv2/BatchNorm/moments/Mean_1/reduction_indices"
  op: "Const"
  attr {
    key: "_output_shapes"
    value {
      list {
        shape {
          dim {
            size: 3
          }
        }
      }
    }
  }
  attr {
    key: "dtype"
    value {
      type: DT_INT32
    }
  }
  attr {
    key: "value"
    value {
      tensor {
        dtype: DT_INT32
        tensor_shape {
          dim {
            size: 3
          }
        }
        tensor_content: "\000\000\000\000\001\000\000\000\002\000\000\000"
      }
    }
  }
}
node {
  name: "Model/Batch_norm_conv2/a_conv2/BatchNorm/moments/Mean_1"
  op: "Mean"
  input: "Model/Batch_norm_conv2/a_conv2/BatchNorm/moments/SquaredDifference"
  input: "Model/Batch_norm_conv2/a_conv2/BatchNorm/moments/Mean_1/reduction_indices"
  attr {
    key: "T"
    value {
      type: DT_FLOAT
    }
  }
  attr {
    key: "Tidx"
    value {
      type: DT_INT32
    }
  }
  attr {
    key: "_output_shapes"
    value {
      list {
        shape {
          dim {
            size: 1
          }
          dim {
            size: 1
          }
          dim {
            size: 1
          }
          dim {
            size: 14
          }
        }
      }
    }
  }
  attr {
    key: "keep_dims"
    value {
      b: true
    }
  }
}
node {
  name: "Model/Batch_norm_conv2/a_conv2/BatchNorm/moments/Square"
  op: "Square"
  input: "Model/Batch_norm_conv2/a_conv2/BatchNorm/moments/shifted_mean"
  attr {
    key: "T"
    value {
      type: DT_FLOAT
    }
  }
  attr {
    key: "_output_shapes"
    value {
      list {
        shape {
          dim {
            size: 1
          }
          dim {
            size: 1
          }
          dim {
            size: 1
          }
          dim {
            size: 14
          }
        }
      }
    }
  }
}
node {
  name: "Model/Batch_norm_conv2/a_conv2/BatchNorm/moments/variance"
  op: "Sub"
  input: "Model/Batch_norm_conv2/a_conv2/BatchNorm/moments/Mean_1"
  input: "Model/Batch_norm_conv2/a_conv2/BatchNorm/moments/Square"
  attr {
    key: "T"
    value {
      type: DT_FLOAT
    }
  }
  attr {
    key: "_output_shapes"
    value {
      list {
        shape {
          dim {
            size: 1
          }
          dim {
            size: 1
          }
          dim {
            size: 1
          }
          dim {
            size: 14
          }
        }
      }
    }
  }
}
node {
  name: "Model/Batch_norm_conv2/a_conv2/BatchNorm/moments/mean"
  op: "Add"
  input: "Model/Batch_norm_conv2/a_conv2/BatchNorm/moments/shifted_mean"
  input: "Model/Batch_norm_conv2/a_conv2/BatchNorm/moments/StopGradient"
  attr {
    key: "T"
    value {
      type: DT_FLOAT
    }
  }
  attr {
    key: "_output_shapes"
    value {
      list {
        shape {
          dim {
            size: 1
          }
          dim {
            size: 1
          }
          dim {
            size: 1
          }
          dim {
            size: 14
          }
        }
      }
    }
  }
}
node {
  name: "Model/Batch_norm_conv2/a_conv2/BatchNorm/moments/Squeeze"
  op: "Squeeze"
  input: "Model/Batch_norm_conv2/a_conv2/BatchNorm/moments/mean"
  attr {
    key: "T"
    value {
      type: DT_FLOAT
    }
  }
  attr {
    key: "_output_shapes"
    value {
      list {
        shape {
          dim {
            size: 14
          }
        }
      }
    }
  }
  attr {
    key: "squeeze_dims"
    value {
      list {
        i: 0
        i: 1
        i: 2
      }
    }
  }
}
node {
  name: "Model/Batch_norm_conv2/a_conv2/BatchNorm/moments/Squeeze_1"
  op: "Squeeze"
  input: "Model/Batch_norm_conv2/a_conv2/BatchNorm/moments/variance"
  attr {
    key: "T"
    value {
      type: DT_FLOAT
    }
  }
  attr {
    key: "_output_shapes"
    value {
      list {
        shape {
          dim {
            size: 14
          }
        }
      }
    }
  }
  attr {
    key: "squeeze_dims"
    value {
      list {
        i: 0
        i: 1
        i: 2
      }
    }
  }
}
node {
  name: "Model/Batch_norm_conv2/a_conv2/BatchNorm/AssignMovingAvg/decay"
  op: "Const"
  attr {
    key: "_class"
    value {
      list {
        s: "loc:@a_conv2/BatchNorm/moving_mean"
      }
    }
  }
  attr {
    key: "_output_shapes"
    value {
      list {
        shape {
        }
      }
    }
  }
  attr {
    key: "dtype"
    value {
      type: DT_FLOAT
    }
  }
  attr {
    key: "value"
    value {
      tensor {
        dtype: DT_FLOAT
        tensor_shape {
        }
        float_val: 0.0010000000475
      }
    }
  }
}
node {
  name: "Model/Batch_norm_conv2/a_conv2/BatchNorm/AssignMovingAvg/sub"
  op: "Sub"
  input: "a_conv2/BatchNorm/moving_mean/read"
  input: "Model/Batch_norm_conv2/a_conv2/BatchNorm/moments/Squeeze"
  attr {
    key: "T"
    value {
      type: DT_FLOAT
    }
  }
  attr {
    key: "_class"
    value {
      list {
        s: "loc:@a_conv2/BatchNorm/moving_mean"
      }
    }
  }
  attr {
    key: "_output_shapes"
    value {
      list {
        shape {
          dim {
            size: 14
          }
        }
      }
    }
  }
}
node {
  name: "Model/Batch_norm_conv2/a_conv2/BatchNorm/AssignMovingAvg/mul"
  op: "Mul"
  input: "Model/Batch_norm_conv2/a_conv2/BatchNorm/AssignMovingAvg/sub"
  input: "Model/Batch_norm_conv2/a_conv2/BatchNorm/AssignMovingAvg/decay"
  attr {
    key: "T"
    value {
      type: DT_FLOAT
    }
  }
  attr {
    key: "_class"
    value {
      list {
        s: "loc:@a_conv2/BatchNorm/moving_mean"
      }
    }
  }
  attr {
    key: "_output_shapes"
    value {
      list {
        shape {
          dim {
            size: 14
          }
        }
      }
    }
  }
}
node {
  name: "Model/Batch_norm_conv2/a_conv2/BatchNorm/AssignMovingAvg"
  op: "AssignSub"
  input: "a_conv2/BatchNorm/moving_mean"
  input: "Model/Batch_norm_conv2/a_conv2/BatchNorm/AssignMovingAvg/mul"
  attr {
    key: "T"
    value {
      type: DT_FLOAT
    }
  }
  attr {
    key: "_class"
    value {
      list {
        s: "loc:@a_conv2/BatchNorm/moving_mean"
      }
    }
  }
  attr {
    key: "_output_shapes"
    value {
      list {
        shape {
          dim {
            size: 14
          }
        }
      }
    }
  }
  attr {
    key: "use_locking"
    value {
      b: false
    }
  }
}
node {
  name: "Model/Batch_norm_conv2/a_conv2/BatchNorm/AssignMovingAvg_1/decay"
  op: "Const"
  attr {
    key: "_class"
    value {
      list {
        s: "loc:@a_conv2/BatchNorm/moving_variance"
      }
    }
  }
  attr {
    key: "_output_shapes"
    value {
      list {
        shape {
        }
      }
    }
  }
  attr {
    key: "dtype"
    value {
      type: DT_FLOAT
    }
  }
  attr {
    key: "value"
    value {
      tensor {
        dtype: DT_FLOAT
        tensor_shape {
        }
        float_val: 0.0010000000475
      }
    }
  }
}
node {
  name: "Model/Batch_norm_conv2/a_conv2/BatchNorm/AssignMovingAvg_1/sub"
  op: "Sub"
  input: "a_conv2/BatchNorm/moving_variance/read"
  input: "Model/Batch_norm_conv2/a_conv2/BatchNorm/moments/Squeeze_1"
  attr {
    key: "T"
    value {
      type: DT_FLOAT
    }
  }
  attr {
    key: "_class"
    value {
      list {
        s: "loc:@a_conv2/BatchNorm/moving_variance"
      }
    }
  }
  attr {
    key: "_output_shapes"
    value {
      list {
        shape {
          dim {
            size: 14
          }
        }
      }
    }
  }
}
node {
  name: "Model/Batch_norm_conv2/a_conv2/BatchNorm/AssignMovingAvg_1/mul"
  op: "Mul"
  input: "Model/Batch_norm_conv2/a_conv2/BatchNorm/AssignMovingAvg_1/sub"
  input: "Model/Batch_norm_conv2/a_conv2/BatchNorm/AssignMovingAvg_1/decay"
  attr {
    key: "T"
    value {
      type: DT_FLOAT
    }
  }
  attr {
    key: "_class"
    value {
      list {
        s: "loc:@a_conv2/BatchNorm/moving_variance"
      }
    }
  }
  attr {
    key: "_output_shapes"
    value {
      list {
        shape {
          dim {
            size: 14
          }
        }
      }
    }
  }
}
node {
  name: "Model/Batch_norm_conv2/a_conv2/BatchNorm/AssignMovingAvg_1"
  op: "AssignSub"
  input: "a_conv2/BatchNorm/moving_variance"
  input: "Model/Batch_norm_conv2/a_conv2/BatchNorm/AssignMovingAvg_1/mul"
  attr {
    key: "T"
    value {
      type: DT_FLOAT
    }
  }
  attr {
    key: "_class"
    value {
      list {
        s: "loc:@a_conv2/BatchNorm/moving_variance"
      }
    }
  }
  attr {
    key: "_output_shapes"
    value {
      list {
        shape {
          dim {
            size: 14
          }
        }
      }
    }
  }
  attr {
    key: "use_locking"
    value {
      b: false
    }
  }
}
node {
  name: "Model/Batch_norm_conv2/a_conv2/BatchNorm/Identity"
  op: "Identity"
  input: "Model/Batch_norm_conv2/a_conv2/BatchNorm/moments/Squeeze"
  input: "^Model/Batch_norm_conv2/a_conv2/BatchNorm/AssignMovingAvg"
  input: "^Model/Batch_norm_conv2/a_conv2/BatchNorm/AssignMovingAvg_1"
  attr {
    key: "T"
    value {
      type: DT_FLOAT
    }
  }
  attr {
    key: "_output_shapes"
    value {
      list {
        shape {
          dim {
            size: 14
          }
        }
      }
    }
  }
}
node {
  name: "Model/Batch_norm_conv2/a_conv2/BatchNorm/Identity_1"
  op: "Identity"
  input: "Model/Batch_norm_conv2/a_conv2/BatchNorm/moments/Squeeze_1"
  input: "^Model/Batch_norm_conv2/a_conv2/BatchNorm/AssignMovingAvg"
  input: "^Model/Batch_norm_conv2/a_conv2/BatchNorm/AssignMovingAvg_1"
  attr {
    key: "T"
    value {
      type: DT_FLOAT
    }
  }
  attr {
    key: "_output_shapes"
    value {
      list {
        shape {
          dim {
            size: 14
          }
        }
      }
    }
  }
}
node {
  name: "Model/Batch_norm_conv2/a_conv2/BatchNorm/batchnorm/add/y"
  op: "Const"
  attr {
    key: "_output_shapes"
    value {
      list {
        shape {
        }
      }
    }
  }
  attr {
    key: "dtype"
    value {
      type: DT_FLOAT
    }
  }
  attr {
    key: "value"
    value {
      tensor {
        dtype: DT_FLOAT
        tensor_shape {
        }
        float_val: 0.0010000000475
      }
    }
  }
}
node {
  name: "Model/Batch_norm_conv2/a_conv2/BatchNorm/batchnorm/add"
  op: "Add"
  input: "Model/Batch_norm_conv2/a_conv2/BatchNorm/Identity_1"
  input: "Model/Batch_norm_conv2/a_conv2/BatchNorm/batchnorm/add/y"
  attr {
    key: "T"
    value {
      type: DT_FLOAT
    }
  }
  attr {
    key: "_output_shapes"
    value {
      list {
        shape {
          dim {
            size: 14
          }
        }
      }
    }
  }
}
node {
  name: "Model/Batch_norm_conv2/a_conv2/BatchNorm/batchnorm/Rsqrt"
  op: "Rsqrt"
  input: "Model/Batch_norm_conv2/a_conv2/BatchNorm/batchnorm/add"
  attr {
    key: "T"
    value {
      type: DT_FLOAT
    }
  }
  attr {
    key: "_output_shapes"
    value {
      list {
        shape {
          dim {
            size: 14
          }
        }
      }
    }
  }
}
node {
  name: "Model/Batch_norm_conv2/a_conv2/BatchNorm/batchnorm/mul"
  op: "Mul"
  input: "Model/Conv2/add"
  input: "Model/Batch_norm_conv2/a_conv2/BatchNorm/batchnorm/Rsqrt"
  attr {
    key: "T"
    value {
      type: DT_FLOAT
    }
  }
  attr {
    key: "_output_shapes"
    value {
      list {
        shape {
          dim {
            size: -1
          }
          dim {
            size: 120
          }
          dim {
            size: 1
          }
          dim {
            size: 14
          }
        }
      }
    }
  }
}
node {
  name: "Model/Batch_norm_conv2/a_conv2/BatchNorm/batchnorm/mul_1"
  op: "Mul"
  input: "Model/Batch_norm_conv2/a_conv2/BatchNorm/Identity"
  input: "Model/Batch_norm_conv2/a_conv2/BatchNorm/batchnorm/Rsqrt"
  attr {
    key: "T"
    value {
      type: DT_FLOAT
    }
  }
  attr {
    key: "_output_shapes"
    value {
      list {
        shape {
          dim {
            size: 14
          }
        }
      }
    }
  }
}
node {
  name: "Model/Batch_norm_conv2/a_conv2/BatchNorm/batchnorm/sub"
  op: "Sub"
  input: "a_conv2/BatchNorm/beta/read"
  input: "Model/Batch_norm_conv2/a_conv2/BatchNorm/batchnorm/mul_1"
  attr {
    key: "T"
    value {
      type: DT_FLOAT
    }
  }
  attr {
    key: "_output_shapes"
    value {
      list {
        shape {
          dim {
            size: 14
          }
        }
      }
    }
  }
}
node {
  name: "Model/Batch_norm_conv2/a_conv2/BatchNorm/batchnorm/add_1"
  op: "Add"
…
        string_val: ""
      }
    }
  }
}
node {
  name: "save/RestoreV2_11"
  op: "RestoreV2"
  input: "save/Const"
  input: "save/RestoreV2_11/tensor_names"
  input: "save/RestoreV2_11/shape_and_slices"
  attr {
    key: "_output_shapes"
    value {
      list {
        shape {
          unknown_rank: true
        }
      }
    }
  }
  attr {
    key: "dtypes"
    value {
      list {
        type: DT_FLOAT
      }
    }
  }
}
node {
  name: "save/Assign_11"
  op: "Assign"
  input: "bias_for_Conv_Layer_1"
  input: "save/RestoreV2_11"
  attr {
    key: "T"
    value {
      type: DT_FLOAT
    }
  }
  attr {
    key: "_class"
    value {
      list {
        s: "loc:@bias_for_Conv_Layer_1"
      }
    }
  }
  attr {
    key: "_output_shapes"
    value {
      list {
        shape {
          dim {
            size: 16
          }
        }
      }
    }
  }
  attr {
    key: "use_locking"
    value {
      b: true
    }
  }
  attr {
    key: "validate_shape"
    value {
      b: true
    }
  }
}
node {
  name: "save/RestoreV2_12/tensor_names"
  op: "Const"
  attr {
    key: "_output_shapes"
    value {
      list {
        shape {
          dim {
            size: 1
          }
        }
      }
    }
  }
  attr {
    key: "dtype"
    value {
      type: DT_STRING
    }
  }
  attr {
    key: "value"
    value {
      tensor {
        dtype: DT_STRING
        tensor_shape {
          dim {
            size: 1
          }
        }
        string_val: "bias_for_Conv_Layer_2"
      }
    }
  }
}
node {
  name: "save/RestoreV2_12/shape_and_slices"
  op: "Const"
  attr {
    key: "_output_shapes"
    value {
      list {
        shape {
          dim {
            size: 1
          }
        }
      }
    }
  }
  attr {
    key: "dtype"
    value {
      type: DT_STRING
    }
  }
  attr {
    key: "value"
    value {
      tensor {
        dtype: DT_STRING
        tensor_shape {
          dim {
            size: 1
          }
        }
        string_val: ""
      }
    }
  }
}
node {
  name: "save/RestoreV2_12"
  op: "RestoreV2"
  input: "save/Const"
  input: "save/RestoreV2_12/tensor_names"
  input: "save/RestoreV2_12/shape_and_slices"
  attr {
    key: "_output_shapes"
    value {
      list {
        shape {
          unknown_rank: true
        }
      }
    }
  }
  attr {
    key: "dtypes"
    value {
      list {
        type: DT_FLOAT
      }
    }
  }
}
node {
  name: "save/Assign_12"
  op: "Assign"
  input: "bias_for_Conv_Layer_2"
  input: "save/RestoreV2_12"
  attr {
    key: "T"
    value {
      type: DT_FLOAT
    }
  }
  attr {
    key: "_class"
    value {
      list {
        s: "loc:@bias_for_Conv_Layer_2"
      }
    }
  }
  attr {
    key: "_output_shapes"
    value {
      list {
        shape {
          dim {
            size: 14
          }
        }
      }
    }
  }
  attr {
    key: "use_locking"
    value {
      b: true
    }
  }
  attr {
    key: "validate_shape"
    value {
      b: true
    }
  }
}
node {
  name: "save/RestoreV2_13/tensor_names"
  op: "Const"
  attr {
    key: "_output_shapes"
    value {
      list {
        shape {
          dim {
            size: 1
          }
        }
      }
    }
  }
  attr {
    key: "dtype"
    value {
      type: DT_STRING
    }
  }
  attr {
    key: "value"
    value {
      tensor {
        dtype: DT_STRING
        tensor_shape {
          dim {
            size: 1
          }
        }
        string_val: "bias_for_Fully_Connected_Layer_1"
      }
    }
  }
}
node {
  name: "save/RestoreV2_13/shape_and_slices"
  op: "Const"
  attr {
    key: "_output_shapes"
    value {
      list {
        shape {
          dim {
            size: 1
          }
        }
      }
    }
  }
  attr {
    key: "dtype"
    value {
      type: DT_STRING
    }
  }
  attr {
    key: "value"
    value {
      tensor {
        dtype: DT_STRING
        tensor_shape {
          dim {
            size: 1
          }
        }
        string_val: ""
      }
    }
  }
}
node {
  name: "save/RestoreV2_13"
  op: "RestoreV2"
  input: "save/Const"
  input: "save/RestoreV2_13/tensor_names"
  input: "save/RestoreV2_13/shape_and_slices"
  attr {
    key: "_output_shapes"
    value {
      list {
        shape {
          unknown_rank: true
        }
      }
    }
  }
  attr {
    key: "dtypes"
    value {
      list {
        type: DT_FLOAT
      }
    }
  }
}
node {
  name: "save/Assign_13"
  op: "Assign"
  input: "bias_for_Fully_Connected_Layer_1"
  input: "save/RestoreV2_13"
  attr {
    key: "T"
    value {
      type: DT_FLOAT
    }
  }
  attr {
    key: "_class"
    value {
      list {
        s: "loc:@bias_for_Fully_Connected_Layer_1"
      }
    }
  }
  attr {
    key: "_output_shapes"
    value {
      list {
        shape {
          dim {
            size: 40
          }
        }
      }
    }
  }
  attr {
    key: "use_locking"
    value {
      b: true
    }
  }
  attr {
    key: "validate_shape"
    value {
      b: true
    }
  }
}
node {
  name: "save/RestoreV2_14/tensor_names"
  op: "Const"
  attr {
    key: "_output_shapes"
    value {
      list {
        shape {
          dim {
            size: 1
          }
        }
      }
    }
  }
  attr {
    key: "dtype"
    value {
      type: DT_STRING
    }
  }
  attr {
    key: "value"
    value {
      tensor {
        dtype: DT_STRING
        tensor_shape {
          dim {
            size: 1
          }
        }
        string_val: "global_step"
      }
    }
  }
}
node {
  name: "save/RestoreV2_14/shape_and_slices"
  op: "Const"
  attr {
    key: "_output_shapes"
    value {
      list {
        shape {
          dim {
            size: 1
          }
        }
      }
    }
  }
  attr {
    key: "dtype"
    value {
      type: DT_STRING
    }
  }
  attr {
    key: "value"
    value {
      tensor {
        dtype: DT_STRING
        tensor_shape {
          dim {
            size: 1
          }
        }
        string_val: ""
      }
    }
  }
}
node {
  name: "save/RestoreV2_14"
  op: "RestoreV2"
  input: "save/Const"
  input: "save/RestoreV2_14/tensor_names"
  input: "save/RestoreV2_14/shape_and_slices"
  attr {
    key: "_output_shapes"
    value {
      list {
        shape {
          unknown_rank: true
        }
      }
    }
  }
  attr {
    key: "dtypes"
    value {
      list {
        type: DT_INT64
      }
    }
  }
}
node {
  name: "save/Assign_14"
  op: "Assign"
  input: "global_step"
  input: "save/RestoreV2_14"
  attr {
    key: "T"
    value {
      type: DT_INT64
    }
  }
  attr {
    key: "_class"
    value {
      list {
        s: "loc:@global_step"
      }
    }
  }
  attr {
    key: "_output_shapes"
    value {
      list {
        shape {
        }
      }
    }
  }
  attr {
    key: "use_locking"
    value {
      b: true
    }
  }
  attr {
    key: "validate_shape"
    value {
      b: true
    }
  }
}
node {
  name: "save/restore_all"
  op: "NoOp"
  input: "^save/Assign"
  input: "^save/Assign_1"
  input: "^save/Assign_2"
  input: "^save/Assign_3"
  input: "^save/Assign_4"
  input: "^save/Assign_5"
  input: "^save/Assign_6"
  input: "^save/Assign_7"
  input: "^save/Assign_8"
  input: "^save/Assign_9"
  input: "^save/Assign_10"
  input: "^save/Assign_11"
  input: "^save/Assign_12"
  input: "^save/Assign_13"
  input: "^save/Assign_14"
}
node {
  name: "Model_1/Reshaping_data/Reshape/shape"
  op: "Const"
  attr {
    key: "_output_shapes"
    value {
      list {
        shape {
          dim {
            size: 4
          }
        }
      }
    }
  }
  attr {
    key: "dtype"
    value {
      type: DT_INT32
    }
  }
  attr {
    key: "value"
    value {
      tensor {
        dtype: DT_INT32
        tensor_shape {
          dim {
            size: 4
          }
        }
        tensor_content: "\377\377\377\377x\000\000\000\001\000\000\000\001\000\000\000"
      }
    }
  }
}
node {
  name: "Model_1/Reshaping_data/Reshape"
  op: "Reshape"
  input: "batch_1"
  input: "Model_1/Reshaping_data/Reshape/shape"
  attr {
    key: "T"
    value {
      type: DT_FLOAT
    }
  }
  attr {
    key: "Tshape"
    value {
      type: DT_INT32
    }
  }
  attr {
    key: "_output_shapes"
    value {
      list {
        shape {
          dim {
            size: -1
          }
          dim {
            size: 120
          }
          dim {
            size: 1
          }
          dim {
            size: 1
          }
        }
      }
    }
  }
}
node {
  name: "Model_1/Conv1/Conv2D"
  op: "Conv2D"
  input: "Model_1/Reshaping_data/Reshape"
  input: "Conv_Layer_1/read"
  attr {
    key: "T"
    value {
      type: DT_FLOAT
    }
  }
  attr {
    key: "_output_shapes"
    value {
      list {
        shape {
          dim {
            size: -1
          }
          dim {
            size: 120
          }
          dim {
            size: 1
          }
          dim {
            size: 16
          }
        }
      }
    }
  }
  attr {
    key: "data_format"
    value {
      s: "NHWC"
    }
  }
  attr {
    key: "padding"
    value {
      s: "SAME"
    }
  }
  attr {
    key: "strides"
    value {
      list {
        i: 1
        i: 1
        i: 1
        i: 1
      }
    }
  }
  attr {
    key: "use_cudnn_on_gpu"
    value {
      b: true
    }
  }
}
node {
  name: "Model_1/Conv1/add"
  op: "Add"
  input: "Model_1/Conv1/Conv2D"
  input: "bias_for_Conv_Layer_1/read"
  attr {
    key: "T"
    value {
      type: DT_FLOAT
    }
  }
  attr {
    key: "_output_shapes"
    value {
      list {
        shape {
          dim {
            size: -1
          }
          dim {
            size: 120
          }
          dim {
            size: 1
          }
          dim {
            size: 16
          }
        }
      }
    }
  }
}
node {
  name: "Model_1/Batch_norm_conv1/a_conv1/BatchNorm/batchnorm/add/y"
  op: "Const"
  attr {
    key: "_output_shapes"
    value {
      list {
        shape {
        }
      }
    }
  }
  attr {
    key: "dtype"
    value {
      type: DT_FLOAT
    }
  }
  attr {
    key: "value"
    value {
      tensor {
        dtype: DT_FLOAT
        tensor_shape {
        }
        float_val: 0.0010000000475
      }
    }
  }
}
node {
  name: "Model_1/Batch_norm_conv1/a_conv1/BatchNorm/batchnorm/add"
  op: "Add"
  input: "a_conv1/BatchNorm/moving_variance/read"
  input: "Model_1/Batch_norm_conv1/a_conv1/BatchNorm/batchnorm/add/y"
  attr {
    key: "T"
    value {
      type: DT_FLOAT
    }
  }
  attr {
    key: "_output_shapes"
    value {
      list {
        shape {
          dim {
            size: 16
          }
        }
      }
    }
  }
}
node {
  name: "Model_1/Batch_norm_conv1/a_conv1/BatchNorm/batchnorm/Rsqrt"
  op: "Rsqrt"
  input: "Model_1/Batch_norm_conv1/a_conv1/BatchNorm/batchnorm/add"
  attr {
    key: "T"
    value {
      type: DT_FLOAT
    }
  }
  attr {
    key: "_output_shapes"
    value {
      list {
        shape {
          dim {
            size: 16
          }
        }
      }
    }
  }
}
node {
  name: "Model_1/Batch_norm_conv1/a_conv1/BatchNorm/batchnorm/mul"
  op: "Mul"
  input: "Model_1/Conv1/add"
  input: "Model_1/Batch_norm_conv1/a_conv1/BatchNorm/batchnorm/Rsqrt"
  attr {
    key: "T"
    value {
      type: DT_FLOAT
    }
  }
  attr {
    key: "_output_shapes"
    value {
      list {
        shape {
          dim {
            size: -1
          }
          dim {
            size: 120
          }
          dim {
            size: 1
          }
          dim {
            size: 16
          }
        }
      }
    }
  }
}
node {
  name: "Model_1/Batch_norm_conv1/a_conv1/BatchNorm/batchnorm/mul_1"
  op: "Mul"
  input: "a_conv1/BatchNorm/moving_mean/read"
  input: "Model_1/Batch_norm_conv1/a_conv1/BatchNorm/batchnorm/Rsqrt"
  attr {
    key: "T"
    value {
      type: DT_FLOAT
    }
  }
  attr {
    key: "_output_shapes"
    value {
      list {
        shape {
          dim {
            size: 16
          }
        }
      }
    }
  }
}
node {
  name: "Model_1/Batch_norm_conv1/a_conv1/BatchNorm/batchnorm/sub"
  op: "Sub"
  input: "a_conv1/BatchNorm/beta/read"
  input: "Model_1/Batch_norm_conv1/a_conv1/BatchNorm/batchnorm/mul_1"
  attr {
    key: "T"
    value {
      type: DT_FLOAT
    }
  }
  attr {
    key: "_output_shapes"
    value {
      list {
        shape {
          dim {
            size: 16
          }
        }
      }
    }
  }
}
node {
  name: "Model_1/Batch_norm_conv1/a_conv1/BatchNorm/batchnorm/add_1"
  op: "Add"
  input: "Model_1/Batch_norm_conv1/a_conv1/BatchNorm/batchnorm/mul"
  input: "Model_1/Batch_norm_conv1/a_conv1/BatchNorm/batchnorm/sub"
  attr {
    key: "T"
    value {
      type: DT_FLOAT
    }
  }
  attr {
    key: "_output_shapes"
    value {
      list {
        shape {
          dim {
            size: -1
          }
          dim {
            size: 120
          }
          dim {
            size: 1
          }
          dim {
            size: 16
          }
        }
      }
    }
  }
}
node {
  name: "Model_1/Batch_norm_conv1/Relu"
  op: "Relu"
  input: "Model_1/Batch_norm_conv1/a_conv1/BatchNorm/batchnorm/add_1"
  attr {
    key: "T"
    value {
      type: DT_FLOAT
    }
  }
  attr {
    key: "_output_shapes"
    value {
      list {
        shape {
          dim {
            size: -1
          }
          dim {
            size: 120
          }
          dim {
            size: 1
          }
          dim {
            size: 16
          }
        }
      }
    }
  }
}
node {
  name: "Model_1/Conv2/Conv2D"
  op: "Conv2D"
  input: "Model_1/Batch_norm_conv1/Relu"
  input: "Conv_Layer_2/read"
  attr {
    key: "T"
    value {
      type: DT_FLOAT
    }
  }
  attr {
    key: "_output_shapes"
    value {
      list {
        shape {
          dim {
            size: -1
          }
          dim {
            size: 120
          }
          dim {
            size: 1
          }
          dim {
            size: 14
          }
        }
      }
    }
  }
  attr {
    key: "data_format"
    value {
      s: "NHWC"
    }
  }
  attr {
    key: "padding"
    value {
      s: "SAME"
    }
  }
  attr {
    key: "strides"
    value {
      list {
        i: 1
        i: 1
        i: 1
        i: 1
      }
    }
  }
  attr {
    key: "use_cudnn_on_gpu"
    value {
      b: true
    }
  }
}
node {
  name: "Model_1/Conv2/add"
  op: "Add"
  input: "Model_1/Conv2/Conv2D"
  input: "bias_for_Conv_Layer_2/read"
  attr {
    key: "T"
    value {
      type: DT_FLOAT
    }
  }
  attr {
    key: "_output_shapes"
    value {
      list {
        shape {
          dim {
            size: -1
          }
          dim {
            size: 120
          }
          dim {
            size: 1
          }
          dim {
            size: 14
          }
        }
      }
    }
  }
}
node {
  name: "Model_1/Batch_norm_conv2/a_conv2/BatchNorm/batchnorm/add/y"
  op: "Const"
  attr {
    key: "_output_shapes"
    value {
      list {
        shape {
        }
      }
    }
  }
  attr {
    key: "dtype"
    value {
      type: DT_FLOAT
    }
  }
  attr {
    key: "value"
    value {
      tensor {
        dtype: DT_FLOAT
        tensor_shape {
        }
        float_val: 0.0010000000475
      }
    }
  }
}
node {
  name: "Model_1/Batch_norm_conv2/a_conv2/BatchNorm/batchnorm/add"
  op: "Add"
  input: "a_conv2/BatchNorm/moving_variance/read"
  input: "Model_1/Batch_norm_conv2/a_conv2/BatchNorm/batchnorm/add/y"
  attr {
    key: "T"
    value {
      type: DT_FLOAT
    }
  }
  attr {
    key: "_output_shapes"
    value {
      list {
        shape {
          dim {
            size: 14
          }
        }
      }
    }
  }
}
node {
  name: "Model_1/Batch_norm_conv2/a_conv2/BatchNorm/batchnorm/Rsqrt"
  op: "Rsqrt"
  input: "Model_1/Batch_norm_conv2/a_conv2/BatchNorm/batchnorm/add"
  attr {
    key: "T"
    value {
      type: DT_FLOAT
    }
  }
  attr {
    key: "_output_shapes"
    value {
      list {
        shape {
          dim {
            size: 14
          }
        }
      }
    }
  }
}
node {
  name: "Model_1/Batch_norm_conv2/a_conv2/BatchNorm/batchnorm/mul"
  op: "Mul"
  input: "Model_1/Conv2/add"
  input: "Model_1/Batch_norm_conv2/a_conv2/BatchNorm/batchnorm/Rsqrt"
  attr {
    key: "T"
    value {
      type: DT_FLOAT
    }
  }
  attr {
    key: "_output_shapes"
    value {
      list {
        shape {
          dim {
            size: -1
          }
          dim {
            size: 120
          }
          dim {
            size: 1
          }
          dim {
            size: 14
          }
        }
      }
    }
  }
}
node {
  name: "Model_1/Batch_norm_conv2/a_conv2/BatchNorm/batchnorm/mul_1"
  op: "Mul"
  input: "a_conv2/BatchNorm/moving_mean/read"
  input: "Model_1/Batch_norm_conv2/a_conv2/BatchNorm/batchnorm/Rsqrt"
  attr {
    key: "T"
    value {
      type: DT_FLOAT
    }
  }
  attr {
    key: "_output_shapes"
    value {
      list {
        shape {
          dim {
            size: 14
          }
        }
      }
    }
  }
}
node {
  name: "Model_1/Batch_norm_conv2/a_conv2/BatchNorm/batchnorm/sub"
  op: "Sub"
  input: "a_conv2/BatchNorm/beta/read"
  input: "Model_1/Batch_norm_conv2/a_conv2/BatchNorm/batchnorm/mul_1"
  attr {
    key: "T"
    value {
      type: DT_FLOAT
    }
  }
  attr {
    key: "_output_shapes"
    value {
      list {
        shape {
          dim {
            size: 14
          }
        }
      }
    }
  }
}
node {
  name: "Model_1/Batch_norm_conv2/a_conv2/BatchNorm/batchnorm/add_1"
  op: "Add"
  input: "Model_1/Batch_norm_conv2/a_conv2/BatchNorm/batchnorm/mul"
  input: "Model_1/Batch_norm_conv2/a_conv2/BatchNorm/batchnorm/sub"
  attr {
    key: "T"
    value {
      type: DT_FLOAT
    }
  }
  attr {
    key: "_output_shapes"
    value {
      list {
        shape {
          dim {
            size: -1
          }
          dim {
            size: 120
          }
          dim {
            size: 1
          }
          dim {
            size: 14
          }
        }
      }
    }
  }
}
node {
  name: "Model_1/Batch_norm_conv2/Relu"
  op: "Relu"
  input: "Model_1/Batch_norm_conv2/a_conv2/BatchNorm/batchnorm/add_1"
  attr {
    key: "T"
    value {
      type: DT_FLOAT
    }
  }
  attr {
    key: "_output_shapes"
    value {
      list {
        shape {
          dim {
            size: -1
          }
          dim {
            size: 120
          }
          dim {
            size: 1
          }
          dim {
            size: 14
          }
        }
      }
    }
  }
}
node {
  name: "Model_1/Fully_Connected1/Reshape/shape"
  op: "Const"
  attr {
    key: "_output_shapes"
    value {
      list {
        shape {
          dim {
            size: 2
          }
        }
      }
    }
  }
  attr {
    key: "dtype"
    value {
      type: DT_INT32
    }
  }
  attr {
    key: "value"
    value {
      tensor {
        dtype: DT_INT32
        tensor_shape {
          dim {
            size: 2
          }
        }
        tensor_content: "\377\377\377\377\220\006\000\000"
      }
    }
  }
}
node {
  name: "Model_1/Fully_Connected1/Reshape"
  op: "Reshape"
  input: "Model_1/Batch_norm_conv2/Relu"
  input: "Model_1/Fully_Connected1/Reshape/shape"
  attr {
    key: "T"
    value {
      type: DT_FLOAT
    }
  }
  attr {
    key: "Tshape"
    value {
      type: DT_INT32
    }
  }
  attr {
    key: "_output_shapes"
    value {
      list {
        shape {
          dim {
            size: -1
          }
          dim {
            size: 1680
          }
        }
      }
    }
  }
}
node {
  name: "Model_1/Fully_Connected1/MatMul"
  op: "MatMul"
  input: "Model_1/Fully_Connected1/Reshape"
  input: "Fully_Connected_layer_1/read"
  attr {
    key: "T"
    value {
      type: DT_FLOAT
    }
  }
  attr {
    key: "_output_shapes"
    value {
      list {
        shape {
          dim {
            size: -1
          }
          dim {
            size: 40
          }
        }
      }
    }
  }
  attr {
    key: "transpose_a"
    value {
      b: false
    }
  }
  attr {
    key: "transpose_b"
    value {
      b: false
    }
  }
}
node {
  name: "Model_1/Fully_Connected1/add"
  op: "Add"
  input: "Model_1/Fully_Connected1/MatMul"
  input: "bias_for_Fully_Connected_Layer_1/read"
  attr {
    key: "T"
    value {
      type: DT_FLOAT
    }
  }
  attr {
    key: "_output_shapes"
    value {
      list {
        shape {
          dim {
            size: -1
          }
          dim {
            size: 40
          }
        }
      }
    }
  }
}
node {
  name: "Model_1/Fully_Connected1/Relu"
  op: "Relu"
  input: "Model_1/Fully_Connected1/add"
  attr {
    key: "T"
    value {
      type: DT_FLOAT
    }
  }
  attr {
    key: "_output_shapes"
    value {
      list {
        shape {
          dim {
            size: -1
          }
          dim {
            size: 40
          }
        }
      }
    }
  }
}
node {
  name: "Model_1/Fully_Connected2/dropout/keep_prob"
  op: "Const"
  attr {
    key: "_output_shapes"
    value {
      list {
        shape {
        }
      }
    }
  }
  attr {
    key: "dtype"
    value {
      type: DT_FLOAT
    }
  }
  attr {
    key: "value"
    value {
      tensor {
        dtype: DT_FLOAT
        tensor_shape {
        }
        float_val: 1.0
      }
    }
  }
}
node {
  name: "Model_1/Fully_Connected2/MatMul"
  op: "MatMul"
  input: "Model_1/Fully_Connected1/Relu"
  input: "W_fc2/read"
  attr {
    key: "T"
    value {
      type: DT_FLOAT
    }
  }
  attr {
    key: "_output_shapes"
    value {
      list {
        shape {
          dim {
            size: -1
          }
          dim {
            size: 4
          }
        }
      }
    }
  }
  attr {
    key: "transpose_a"
    value {
      b: false
    }
  }
  attr {
    key: "transpose_b"
    value {
      b: false
    }
  }
}
node {
  name: "Model_1/Fully_Connected2/add"
  op: "Add"
  input: "Model_1/Fully_Connected2/MatMul"
  input: "b_fc2/read"
  attr {
    key: "T"
    value {
      type: DT_FLOAT
    }
  }
  attr {
    key: "_output_shapes"
    value {
      list {
        shape {
          dim {
            size: -1
          }
          dim {
            size: 4
          }
        }
      }
    }
  }
}
node {
  name: "Model_1/output/ArgMax/dimension"
  op: "Const"
  attr {
    key: "_output_shapes"
    value {
      list {
        shape {
        }
      }
    }
  }
  attr {
    key: "dtype"
    value {
      type: DT_INT32
    }
  }
  attr {
    key: "value"
    value {
      tensor {
        dtype: DT_INT32
        tensor_shape {
        }
        int_val: 1
      }
    }
  }
}
node {
  name: "Model_1/output/ArgMax"
  op: "ArgMax"
  input: "Model_1/Fully_Connected2/add"
  input: "Model_1/output/ArgMax/dimension"
  attr {
    key: "T"
    value {
      type: DT_FLOAT
    }
  }
  attr {
    key: "Tidx"
    value {
      type: DT_INT32
    }
  }
  attr {
    key: "_output_shapes"
    value {
      list {
        shape {
          dim {
            size: -1
          }
        }
      }
    }
  }
}
node {
  name: "Model_1/output/y"
  op: "Cast"
  input: "Model_1/output/ArgMax"
  attr {
    key: "DstT"
    value {
      type: DT_INT32
    }
  }
  attr {
    key: "SrcT"
    value {
      type: DT_INT64
    }
  }
  attr {
    key: "_output_shapes"
    value {
      list {
        shape {
          dim {
            size: -1
          }
        }
      }
    }
  }
}
node {
  name: "class_probabilities_1"
  op: "Softmax"
  input: "Model_1/Fully_Connected2/add"
  attr {
    key: "T"
    value {
      type: DT_FLOAT
    }
  }
  attr {
    key: "_output_shapes"
    value {
      list {
        shape {
          dim {
            size: -1
          }
          dim {
            size: 4
          }
        }
      }
    }
  }
}
node {
  name: "accuracy/Equal"
  op: "Equal"
  input: "Model_1/output/y"
  input: "batch_1:1"
  attr {
    key: "T"
    value {
      type: DT_INT32
    }
  }
  attr {
    key: "_output_shapes"
    value {
      list {
        shape {
          dim {
            size: -1
          }
        }
      }
    }
  }
}
node {
  name: "accuracy/Cast"
  op: "Cast"
  input: "accuracy/Equal"
  attr {
    key: "DstT"
    value {
      type: DT_FLOAT
    }
  }
  attr {
    key: "SrcT"
    value {
      type: DT_BOOL
    }
  }
  attr {
    key: "_output_shapes"
    value {
      list {
        shape {
          dim {
            size: -1
          }
        }
      }
    }
  }
}
node {
  name: "accuracy/Const"
  op: "Const"
  attr {
    key: "_output_shapes"
    value {
      list {
        shape {
          dim {
            size: 1
          }
        }
      }
    }
  }
  attr {
    key: "dtype"
    value {
      type: DT_INT32
    }
  }
  attr {
    key: "value"
    value {
      tensor {
        dtype: DT_INT32
        tensor_shape {
          dim {
            size: 1
          }
        }
        int_val: 0
      }
    }
  }
}
node {
  name: "accuracy/Mean"
  op: "Mean"
  input: "accuracy/Cast"
  input: "accuracy/Const"
  attr {
    key: "T"
    value {
      type: DT_FLOAT
    }
  }
  attr {
    key: "Tidx"
    value {
      type: DT_INT32
    }
  }
  attr {
    key: "_output_shapes"
    value {
      list {
        shape {
        }
      }
    }
  }
  attr {
    key: "keep_dims"
    value {
      b: false
    }
  }
}
node {
  name: "init_ops/init"
  op: "NoOp"
  input: "^Conv_Layer_1/Assign"
  input: "^bias_for_Conv_Layer_1/Assign"
  input: "^a_conv1/BatchNorm/beta/Assign"
  input: "^a_conv1/BatchNorm/moving_mean/Assign"
  input: "^a_conv1/BatchNorm/moving_variance/Assign"
  input: "^Conv_Layer_2/Assign"
  input: "^bias_for_Conv_Layer_2/Assign"
  input: "^a_conv2/BatchNorm/beta/Assign"
  input: "^a_conv2/BatchNorm/moving_mean/Assign"
  input: "^a_conv2/BatchNorm/moving_variance/Assign"
  input: "^Fully_Connected_layer_1/Assign"
  input: "^bias_for_Fully_Connected_Layer_1/Assign"
  input: "^W_fc2/Assign"
  input: "^b_fc2/Assign"
  input: "^global_step/Assign"
}
node {
  name: "init_ops/report_uninitialized_variables/IsVariableInitialized"
  op: "IsVariableInitialized"
  input: "Conv_Layer_1"
  attr {
    key: "_class"
    value {
      list {
        s: "loc:@Conv_Layer_1"
      }
    }
  }
  attr {
    key: "_output_shapes"
    value {
      list {
        shape {
        }
      }
    }
  }
  attr {
    key: "dtype"
    value {
      type: DT_FLOAT
    }
  }
}
node {
  name: "init_ops/report_uninitialized_variables/IsVariableInitialized_1"
  op: "IsVariableInitialized"
  input: "bias_for_Conv_Layer_1"
  attr {
    key: "_class"
    value {
      list {
        s: "loc:@bias_for_Conv_Layer_1"
      }
    }
  }
  attr {
    key: "_output_shapes"
    value {
      list {
        shape {
        }
      }
    }
  }
  attr {
    key: "dtype"
    value {
      type: DT_FLOAT
    }
  }
}
node {
  name: "init_ops/report_uninitialized_variables/IsVariableInitialized_2"
  op: "IsVariableInitialized"
  input: "a_conv1/BatchNorm/beta"
  attr {
    key: "_class"
    value {
      list {
        s: "loc:@a_conv1/BatchNorm/beta"
      }
    }
  }
  attr {
    key: "_output_shapes"
    value {
      list {
        shape {
        }
      }
    }
  }
  attr {
    key: "dtype"
    value {
      type: DT_FLOAT
    }
  }
}
node {
  name: "init_ops/report_uninitialized_variables/IsVariableInitialized_3"
  op: "IsVariableInitialized"
  input: "a_conv1/BatchNorm/moving_mean"
  attr {
    key: "_class"
    value {
      list {
        s: "loc:@a_conv1/BatchNorm/moving_mean"
      }
    }
  }
  attr {
    key: "_output_shapes"
    value {
      list {
        shape {
        }
      }
    }
  }
  attr {
    key: "dtype"
    value {
      type: DT_FLOAT
    }
  }
}
node {
  name: "init_ops/report_uninitialized_variables/IsVariableInitialized_4"
  op: "IsVariableInitialized"
  input: "a_conv1/BatchNorm/moving_variance"
  attr {
    key: "_class"
    value {
      list {
        s: "loc:@a_conv1/BatchNorm/moving_variance"
      }
    }
  }
  attr {
    key: "_output_shapes"
    value {
      list {
        shape {
        }
      }
    }
  }
  attr {
    key: "dtype"
    value {
      type: DT_FLOAT
    }
  }
}
node {
  name: "init_ops/report_uninitialized_variables/IsVariableInitialized_5"
  op: "IsVariableInitialized"
  input: "Conv_Layer_2"
  attr {
    key: "_class"
    value {
      list {
        s: "loc:@Conv_Layer_2"
      }
    }
  }
  attr {
    key: "_output_shapes"
    value {
      list {
        shape {
        }
      }
    }
  }
  attr {
    key: "dtype"
    value {
      type: DT_FLOAT
    }
  }
}
node {
  name: "init_ops/report_uninitialized_variables/IsVariableInitialized_6"
  op: "IsVariableInitialized"
  input: "bias_for_Conv_Layer_2"
  attr {
    key: "_class"
    value {
      list {
        s: "loc:@bias_for_Conv_Layer_2"
      }
    }
  }
  attr {
    key: "_output_shapes"
    value {
      list {
        shape {
        }
      }
    }
  }
  attr {
    key: "dtype"
    value {
      type: DT_FLOAT
    }
  }
}
node {
  name: "init_ops/report_uninitialized_variables/IsVariableInitialized_7"
  op: "IsVariableInitialized"
  input: "a_conv2/BatchNorm/beta"
  attr {
    key: "_class"
    value {
      list {
        s: "loc:@a_conv2/BatchNorm/beta"
      }
    }
  }
  attr {
    key: "_output_shapes"
    value {
      list {
        shape {
        }
      }
    }
  }
  attr {
    key: "dtype"
    value {
      type: DT_FLOAT
    }
  }
}
node {
  name: "init_ops/report_uninitialized_variables/IsVariableInitialized_8"
  op: "IsVariableInitialized"
  input: "a_conv2/BatchNorm/moving_mean"
  attr {
    key: "_class"
    value {
      list {
        s: "loc:@a_conv2/BatchNorm/moving_mean"
      }
    }
  }
  attr {
    key: "_output_shapes"
    value {
      list {
        shape {
        }
      }
    }
  }
  attr {
    key: "dtype"
    value {
      type: DT_FLOAT
    }
  }
}
node {
  name: "init_ops/report_uninitialized_variables/IsVariableInitialized_9"
  op: "IsVariableInitialized"
  input: "a_conv2/BatchNorm/moving_variance"
  attr {
    key: "_class"
    value {
      list {
        s: "loc:@a_conv2/BatchNorm/moving_variance"
      }
    }
  }
  attr {
    key: "_output_shapes"
    value {
      list {
        shape {
        }
      }
    }
  }
  attr {
    key: "dtype"
    value {
      type: DT_FLOAT
    }
  }
}
node {
  name: "init_ops/report_uninitialized_variables/IsVariableInitialized_10"
  op: "IsVariableInitialized"
  input: "Fully_Connected_layer_1"
  attr {
    key: "_class"
    value {
      list {
        s: "loc:@Fully_Connected_layer_1"
      }
    }
  }
  attr {
    key: "_output_shapes"
    value {
      list {
        shape {
        }
      }
    }
  }
  attr {
    key: "dtype"
    value {
      type: DT_FLOAT
    }
  }
}
node {
  name: "init_ops/report_uninitialized_variables/IsVariableInitialized_11"
  op: "IsVariableInitialized"
  input: "bias_for_Fully_Connected_Layer_1"
  attr {
    key: "_class"
    value {
      list {
        s: "loc:@bias_for_Fully_Connected_Layer_1"
      }
    }
  }
  attr {
    key: "_output_shapes"
    value {
      list {
        shape {
        }
      }
    }
  }
  attr {
    key: "dtype"
    value {
      type: DT_FLOAT
    }
  }
}
node {
  name: "init_ops/report_uninitialized_variables/IsVariableInitialized_12"
  op: "IsVariableInitialized"
  input: "W_fc2"
  attr {
    key: "_class"
    value {
      list {
        s: "loc:@W_fc2"
      }
    }
  }
  attr {
    key: "_output_shapes"
    value {
      list {
        shape {
        }
      }
    }
  }
  attr {
    key: "dtype"
    value {
      type: DT_FLOAT
    }
  }
}
node {
  name: "init_ops/report_uninitialized_variables/IsVariableInitialized_13"
  op: "IsVariableInitialized"
  input: "b_fc2"
  attr {
    key: "_class"
    value {
      list {
        s: "loc:@b_fc2"
      }
    }
  }
  attr {
    key: "_output_shapes"
    value {
      list {
        shape {
        }
      }
    }
  }
  attr {
    key: "dtype"
    value {
      type: DT_FLOAT
    }
  }
}
node {
  name: "init_ops/report_uninitialized_variables/IsVariableInitialized_14"
  op: "IsVariableInitialized"
  input: "global_step"
  attr {
    key: "_class"
    value {
      list {
        s: "loc:@global_step"
      }
    }
  }
  attr {
    key: "_output_shapes"
    value {
      list {
        shape {
        }
      }
    }
  }
  attr {
    key: "dtype"
    value {
      type: DT_INT64
    }
  }
}
node {
  name: "init_ops/report_uninitialized_variables/stack"
  op: "Pack"
  input: "init_ops/report_uninitialized_variables/IsVariableInitialized"
  input: "init_ops/report_uninitialized_variables/IsVariableInitialized_1"
  input: "init_ops/report_uninitialized_variables/IsVariableInitialized_2"
  input: "init_ops/report_uninitialized_variables/IsVariableInitialized_3"
  input: "init_ops/report_uninitialized_variables/IsVariableInitialized_4"
  input: "init_ops/report_uninitialized_variables/IsVariableInitialized_5"
  input: "init_ops/report_uninitialized_variables/IsVariableInitialized_6"
  input: "init_ops/report_uninitialized_variables/IsVariableInitialized_7"
  input: "init_ops/report_uninitialized_variables/IsVariableInitialized_8"
  input: "init_ops/report_uninitialized_variables/IsVariableInitialized_9"
  input: "init_ops/report_uninitialized_variables/IsVariableInitialized_10"
  input: "init_ops/report_uninitialized_variables/IsVariableInitialized_11"
  input: "init_ops/report_uninitialized_variables/IsVariableInitialized_12"
  input: "init_ops/report_uninitialized_variables/IsVariableInitialized_13"
  input: "init_ops/report_uninitialized_variables/IsVariableInitialized_14"
  attr {
    key: "N"
    value {
      i: 15
    }
  }
  attr {
    key: "T"
    value {
      type: DT_BOOL
    }
  }
  attr {
    key: "_output_shapes"
    value {
      list {
        shape {
          dim {
            size: 15
          }
        }
      }
    }
  }
  attr {
    key: "axis"
    value {
      i: 0
    }
  }
}
node {
  name: "init_ops/report_uninitialized_variables/LogicalNot"
  op: "LogicalNot"
  input: "init_ops/report_uninitialized_variables/stack"
  attr {
    key: "_output_shapes"
    value {
      list {
        shape {
          dim {
            size: 15
          }
        }
      }
    }
  }
}
node {
  name: "init_ops/report_uninitialized_variables/Const"
  op: "Const"
  attr {
    key: "_output_shapes"
    value {
      list {
        shape {
          dim {
            size: 15
          }
        }
      }
    }
  }
  attr {
    key: "dtype"
    value {
      type: DT_STRING
    }
  }
  attr {
    key: "value"
    value {
      tensor {
        dtype: DT_STRING
        tensor_shape {
          dim {
            size: 15
          }
        }
        string_val: "Conv_Layer_1"
        string_val: "bias_for_Conv_Layer_1"
        string_val: "a_conv1/BatchNorm/beta"
        string_val: "a_conv1/BatchNorm/moving_mean"
        string_val: "a_conv1/BatchNorm/moving_variance"
        string_val: "Conv_Layer_2"
        string_val: "bias_for_Conv_Layer_2"
        string_val: "a_conv2/BatchNorm/beta"
        string_val: "a_conv2/BatchNorm/moving_mean"
        string_val: "a_conv2/BatchNorm/moving_variance"
        string_val: "Fully_Connected_layer_1"
        string_val: "bias_for_Fully_Connected_Layer_1"
        string_val: "W_fc2"
        string_val: "b_fc2"
        string_val: "global_step"
      }
    }
  }
}
node {
  name: "init_ops/report_uninitialized_variables/boolean_mask/Shape"
  op: "Const"
  attr {
    key: "_output_shapes"
    value {
      list {
        shape {
          dim {
            size: 1
          }
        }
      }
    }
  }
  attr {
    key: "dtype"
    value {
      type: DT_INT32
    }
  }
  attr {
    key: "value"
    value {
      tensor {
        dtype: DT_INT32
        tensor_shape {
          dim {
            size: 1
          }
        }
        int_val: 15
      }
    }
  }
}
node {
  name: "init_ops/report_uninitialized_variables/boolean_mask/strided_slice/stack"
  op: "Const"
  attr {
    key: "_output_shapes"
    value {
      list {
        shape {
          dim {
            size: 1
          }
        }
      }
    }
  }
  attr {
    key: "dtype"
    value {
      type: DT_INT32
    }
  }
  attr {
    key: "value"
    value {
      tensor {
        dtype: DT_INT32
        tensor_shape {
          dim {
            size: 1
          }
        }
        int_val: 0
      }
    }
  }
}
node {
  name: "init_ops/report_uninitialized_variables/boolean_mask/strided_slice/stack_1"
  op: "Const"
  attr {
    key: "_output_shapes"
    value {
      list {
        shape {
          dim {
            size: 1
          }
        }
      }
    }
  }
  attr {
    key: "dtype"
    value {
      type: DT_INT32
    }
  }
  attr {
    key: "value"
    value {
      tensor {
        dtype: DT_INT32
        tensor_shape {
          dim {
            size: 1
          }
        }
        int_val: 1
      }
    }
  }
}
node {
  name: "init_ops/report_uninitialized_variables/boolean_mask/strided_slice/stack_2"
  op: "Const"
  attr {
    key: "_output_shapes"
    value {
      list {
        shape {
          dim {
            size: 1
          }
        }
      }
    }
  }
  attr {
    key: "dtype"
    value {
      type: DT_INT32
    }
  }
  attr {
    key: "value"
    value {
      tensor {
        dtype: DT_INT32
        tensor_shape {
          dim {
            size: 1
          }
        }
        int_val: 1
      }
    }
  }
}
node {
  name: "init_ops/report_uninitialized_variables/boolean_mask/strided_slice"
  op: "StridedSlice"
  input: "init_ops/report_uninitialized_variables/boolean_mask/Shape"
  input: "init_ops/report_uninitialized_variables/boolean_mask/strided_slice/stack"
  input: "init_ops/report_uninitialized_variables/boolean_mask/strided_slice/stack_1"
  input: "init_ops/report_uninitialized_variables/boolean_mask/strided_slice/stack_2"
  attr {
    key: "Index"
    value {
      type: DT_INT32
    }
  }
  attr {
    key: "T"
    value {
      type: DT_INT32
    }
  }
  attr {
    key: "_output_shapes"
    value {
      list {
        shape {
          dim {
            size: 1
          }
        }
      }
    }
  }
  attr {
    key: "begin_mask"
    value {
      i: 1
    }
  }
  attr {
    key: "ellipsis_mask"
    value {
      i: 0
    }
  }
  attr {
    key: "end_mask"
    value {
      i: 0
    }
  }
  attr {
    key: "new_axis_mask"
    value {
      i: 0
    }
  }
  attr {
    key: "shrink_axis_mask"
    value {
      i: 0
    }
  }
}
node {
  name: "init_ops/report_uninitialized_variables/boolean_mask/Prod/reduction_indices"
  op: "Const"
  attr {
    key: "_output_shapes"
    value {
      list {
        shape {
          dim {
            size: 1
          }
        }
      }
    }
  }
  attr {
    key: "dtype"
    value {
      type: DT_INT32
    }
  }
  attr {
    key: "value"
    value {
      tensor {
        dtype: DT_INT32
        tensor_shape {
          dim {
            size: 1
          }
        }
        int_val: 0
      }
    }
  }
}
node {
  name: "init_ops/report_uninitialized_variables/boolean_mask/Prod"
  op: "Prod"
  input: "init_ops/report_uninitialized_variables/boolean_mask/strided_slice"
  input: "init_ops/report_uninitialized_variables/boolean_mask/Prod/reduction_indices"
  attr {
    key: "T"
    value {
      type: DT_INT32
    }
  }
  attr {
    key: "Tidx"
    value {
      type: DT_INT32
    }
  }
  attr {
    key: "_output_shapes"
    value {
      list {
        shape {
        }
      }
    }
  }
  attr {
    key: "keep_dims"
    value {
      b: false
    }
  }
}
node {
  name: "init_ops/report_uninitialized_variables/boolean_mask/Shape_1"
  op: "Const"
  attr {
    key: "_output_shapes"
    value {
      list {
        shape {
          dim {
            size: 1
          }
        }
      }
    }
  }
  attr {
    key: "dtype"
    value {
      type: DT_INT32
    }
  }
  attr {
    key: "value"
    value {
      tensor {
        dtype: DT_INT32
        tensor_shape {
          dim {
            size: 1
          }
        }
        int_val: 15
      }
    }
  }
}
node {
  name: "init_ops/report_uninitialized_variables/boolean_mask/strided_slice_1/stack"
  op: "Const"
  attr {
    key: "_output_shapes"
    value {
      list {
        shape {
          dim {
            size: 1
          }
        }
      }
    }
  }
  attr {
    key: "dtype"
    value {
      type: DT_INT32
    }
  }
  attr {
    key: "value"
    value {
      tensor {
        dtype: DT_INT32
        tensor_shape {
          dim {
            size: 1
          }
        }
        int_val: 1
      }
    }
  }
}
node {
  name: "init_ops/report_uninitialized_variables/boolean_mask/strided_slice_1/stack_1"
  op: "Const"
  attr {
    key: "_output_shapes"
    value {
      list {
        shape {
          dim {
            size: 1
          }
        }
      }
    }
  }
  attr {
    key: "dtype"
    value {
      type: DT_INT32
    }
  }
  attr {
    key: "value"
    value {
      tensor {
        dtype: DT_INT32
        tensor_shape {
          dim {
            size: 1
          }
        }
        int_val: 0
      }
    }
  }
}
node {
  name: "init_ops/report_uninitialized_variables/boolean_mask/strided_slice_1/stack_2"
  op: "Const"
  attr {
    key: "_output_shapes"
    value {
      list {
        shape {
          dim {
            size: 1
          }
        }
      }
    }
  }
  attr {
    key: "dtype"
    value {
      type: DT_INT32
    }
  }
  attr {
    key: "value"
    value {
      tensor {
        dtype: DT_INT32
        tensor_shape {
          dim {
            size: 1
          }
        }
        int_val: 1
      }
    }
  }
}
node {
  name: "init_ops/report_uninitialized_variables/boolean_mask/strided_slice_1"
  op: "StridedSlice"
  input: "init_ops/report_uninitialized_variables/boolean_mask/Shape_1"
  input: "init_ops/report_uninitialized_variables/boolean_mask/strided_slice_1/stack"
  input: "init_ops/report_uninitialized_variables/boolean_mask/strided_slice_1/stack_1"
  input: "init_ops/report_uninitialized_variables/boolean_mask/strided_slice_1/stack_2"
  attr {
    key: "Index"
    value {
      type: DT_INT32
    }
  }
  attr {
    key: "T"
    value {
      type: DT_INT32
    }
  }
  attr {
    key: "_output_shapes"
    value {
      list {
        shape {
          dim {
          }
        }
      }
    }
  }
  attr {
    key: "begin_mask"
    value {
      i: 0
    }
  }
  attr {
    key: "ellipsis_mask"
    value {
      i: 0
    }
  }
  attr {
    key: "end_mask"
    value {
      i: 1
    }
  }
  attr {
    key: "new_axis_mask"
    value {
      i: 0
    }
  }
  attr {
    key: "shrink_axis_mask"
    value {
      i: 0
    }
  }
}
node {
  name: "init_ops/report_uninitialized_variables/boolean_mask/concat/values_0"
  op: "Pack"
  input: "init_ops/report_uninitialized_variables/boolean_mask/Prod"
  attr {
    key: "N"
    value {
      i: 1
    }
  }
  attr {
    key: "T"
    value {
      type: DT_INT32
    }
  }
  attr {
    key: "_output_shapes"
    value {
      list {
        shape {
          dim {
            size: 1
          }
        }
      }
    }
  }
  attr {
    key: "axis"
    value {
      i: 0
    }
  }
}
node {
  name: "init_ops/report_uninitialized_variables/boolean_mask/concat/axis"
  op: "Const"
  attr {
    key: "_output_shapes"
    value {
      list {
        shape {
        }
      }
    }
  }
  attr {
    key: "dtype"
    value {
      type: DT_INT32
    }
  }
  attr {
    key: "value"
    value {
      tensor {
        dtype: DT_INT32
        tensor_shape {
        }
        int_val: 0
      }
    }
  }
}
node {
  name: "init_ops/report_uninitialized_variables/boolean_mask/concat"
  op: "ConcatV2"
  input: "init_ops/report_uninitialized_variables/boolean_mask/concat/values_0"
  input: "init_ops/report_uninitialized_variables/boolean_mask/strided_slice_1"
  input: "init_ops/report_uninitialized_variables/boolean_mask/concat/axis"
  attr {
    key: "N"
    value {
      i: 2
    }
  }
  attr {
    key: "T"
    value {
      type: DT_INT32
    }
  }
  attr {
    key: "Tidx"
    value {
      type: DT_INT32
    }
  }
  attr {
    key: "_output_shapes"
    value {
      list {
        shape {
          dim {
            size: 1
          }
        }
      }
    }
  }
}
node {
  name: "init_ops/report_uninitialized_variables/boolean_mask/Reshape"
  op: "Reshape"
  input: "init_ops/report_uninitialized_variables/Const"
  input: "init_ops/report_uninitialized_variables/boolean_mask/concat"
  attr {
    key: "T"
    value {
      type: DT_STRING
    }
  }
  attr {
    key: "Tshape"
    value {
      type: DT_INT32
    }
  }
  attr {
    key: "_output_shapes"
    value {
      list {
        shape {
          dim {
            size: 15
          }
        }
      }
    }
  }
}
node {
  name: "init_ops/report_uninitialized_variables/boolean_mask/Reshape_1/shape"
  op: "Const"
  attr {
    key: "_output_shapes"
    value {
      list {
        shape {
          dim {
            size: 1
          }
        }
      }
    }
  }
  attr {
    key: "dtype"
    value {
      type: DT_INT32
    }
  }
  attr {
    key: "value"
    value {
      tensor {
        dtype: DT_INT32
        tensor_shape {
          dim {
            size: 1
          }
        }
        int_val: -1
      }
    }
  }
}
node {
  name: "init_ops/report_uninitialized_variables/boolean_mask/Reshape_1"
  op: "Reshape"
  input: "init_ops/report_uninitialized_variables/LogicalNot"
  input: "init_ops/report_uninitialized_variables/boolean_mask/Reshape_1/shape"
  attr {
    key: "T"
    value {
      type: DT_BOOL
    }
  }
  attr {
    key: "Tshape"
    value {
      type: DT_INT32
    }
  }
  attr {
    key: "_output_shapes"
    value {
      list {
        shape {
          dim {
            size: 15
          }
        }
      }
    }
  }
}
node {
  name: "init_ops/report_uninitialized_variables/boolean_mask/Where"
  op: "Where"
  input: "init_ops/report_uninitialized_variables/boolean_mask/Reshape_1"
  attr {
    key: "_output_shapes"
    value {
      list {
        shape {
          dim {
            size: -1
          }
          dim {
            size: 1
          }
        }
      }
    }
  }
}
node {
  name: "init_ops/report_uninitialized_variables/boolean_mask/Squeeze"
  op: "Squeeze"
  input: "init_ops/report_uninitialized_variables/boolean_mask/Where"
  attr {
    key: "T"
    value {
      type: DT_INT64
    }
  }
  attr {
    key: "_output_shapes"
    value {
      list {
        shape {
          dim {
            size: -1
          }
        }
      }
    }
  }
  attr {
    key: "squeeze_dims"
    value {
      list {
        i: 1
      }
    }
  }
}
node {
  name: "init_ops/report_uninitialized_variables/boolean_mask/Gather"
  op: "Gather"
  input: "init_ops/report_uninitialized_variables/boolean_mask/Reshape"
  input: "init_ops/report_uninitialized_variables/boolean_mask/Squeeze"
  attr {
    key: "Tindices"
    value {
      type: DT_INT64
    }
  }
  attr {
    key: "Tparams"
    value {
      type: DT_STRING
    }
  }
  attr {
    key: "_output_shapes"
    value {
      list {
        shape {
          dim {
            size: -1
          }
        }
      }
    }
  }
  attr {
    key: "validate_indices"
    value {
      b: true
    }
  }
}
node {
  name: "init_ops/init_1"
  op: "NoOp"
}
node {
  name: "init_ops/init_all_tables"
  op: "NoOp"
}
node {
  name: "init_ops/group_deps"
  op: "NoOp"
  input: "^init_ops/init_1"
  input: "^init_ops/init_all_tables"
}
node {
  name: "Merge/MergeSummary"
  op: "MergeSummary"
  input: "parallel_read/filenames/fraction_of_32_full"
  input: "parallel_read/fraction_of_20_full"
  input: "batch/fraction_of_32_full"
  input: "parallel_read_1/filenames/fraction_of_32_full"
  input: "parallel_read_1/fraction_of_70_full"
  input: "batch_1/fraction_of_32_full"
  input: "TotalLoss"
  attr {
    key: "N"
    value {
      i: 7
    }
  }
  attr {
    key: "_output_shapes"
    value {
      list {
        shape {
        }
      }
    }
  }
}
node {
  name: "train_step/GreaterEqual/y"
  op: "Const"
  attr {
    key: "_output_shapes"
    value {
      list {
        shape {
        }
      }
    }
  }
  attr {
    key: "dtype"
    value {
      type: DT_INT64
    }
  }
  attr {
    key: "value"
    value {
      tensor {
        dtype: DT_INT64
        tensor_shape {
        }
        int64_val: 10000
      }
    }
  }
}
node {
  name: "train_step/GreaterEqual"
  op: "GreaterEqual"
  input: "global_step/read"
  input: "train_step/GreaterEqual/y"
  attr {
    key: "T"
    value {
      type: DT_INT64
    }
  }
  attr {
    key: "_output_shapes"
    value {
      list {
        shape {
        }
      }
    }
  }
}
node {
  name: "train_step/FloorMod/y"
  op: "Const"
  attr {
    key: "_output_shapes"
    value {
      list {
        shape {
        }
      }
    }
  }
  attr {
    key: "dtype"
    value {
      type: DT_INT64
    }
  }
  attr {
    key: "value"
    value {
      tensor {
        dtype: DT_INT64
        tensor_shape {
        }
        int64_val: 100
      }
    }
  }
}
node {
  name: "train_step/FloorMod"
  op: "FloorMod"
  input: "global_step/read"
  input: "train_step/FloorMod/y"
  attr {
    key: "T"
    value {
      type: DT_INT64
    }
  }
  attr {
    key: "_output_shapes"
    value {
      list {
        shape {
        }
      }
    }
  }
}
node {
  name: "train_step/Equal/y"
  op: "Const"
  attr {
    key: "_output_shapes"
    value {
      list {
        shape {
        }
      }
    }
  }
  attr {
    key: "dtype"
    value {
      type: DT_INT64
    }
  }
  attr {
    key: "value"
    value {
      tensor {
        dtype: DT_INT64
        tensor_shape {
        }
        int64_val: 0
      }
    }
  }
}
node {
  name: "train_step/Equal"
  op: "Equal"
  input: "train_step/FloorMod"
  input: "train_step/Equal/y"
  attr {
    key: "T"
    value {
      type: DT_INT64
    }
  }
  attr {
    key: "_output_shapes"
    value {
      list {
        shape {
        }
      }
    }
  }
}
versions {
  producer: 22
}
